RL_models/10 Sites (new)/pytorch_models/TD3_MEC_0_critic.pth (torch, 291355 bytes, 10 tensors)

layer_1.weight f4 [134, 199]
0	0x3bf26659	0.0073974547
1	0x3d554007	0.052063014
2	0x3e587d7c	0.21141618
3	0x3e86ffe6	0.2636711
4	0x3e6856ef	0.22689413
5	0x3c2e9fec	0.0106582455
6	0x3e0e5801	0.13900758
7	0x3e06395d	0.1310782
8	0x3ba209c1	0.0049450104
9	0x3e4b4503	0.19850545
10	0x3da59077	0.08084195
11	0x3ddd4deb	0.10805877
12	0x3d19fd30	0.037594974
13	0x3db0d45f	0.086342566
14	0x3d6fc8a2	0.058540948
15	0x3b9d159e	0.0047938367
16	0x3ded514d	0.115877725
17	0x3c476ac4	0.012171451
18	0x3dc36c04	0.09542087
19	0x3e3b9e8d	0.18322201
20	0x3e2344e5	0.1594425
21	0x3d8a4427	0.0675128
22	0x3c2162ed	0.009850246
23	0x3bcbf2a9	0.0062239957
24	0xbdfc30db	-0.12314006
25	0x3d94f4d5	0.072732605
26	0x3e549019	0.20758094
27	0xbd2e6679	-0.042578194
28	0x3cbf5a24	0.023358412
29	0x3e4ae957	0.19815575
30	0xbd82666d	-0.063671924
31	0xbd016841	-0.031593565
32	0x3c995b8a	0.018720407
33	0x3c87cd2f	0.016577331
34	0x3c04c12d	0.008102697
35	0x3cb24e86	0.021765959
36	0xbcbcf136	-0.023064237
37	0x3da727df	0.08161902
38	0x3bedfd45	0.007262858
39	0x3e7e57fc	0.24838251
40	0x3ca2dc6b	0.019880494
41	0xbd3b01f4	-0.04565616
42	0xbc117cc4	-0.008879844
43	0x3d66f33d	0.056384314
44	0xbd24cd3f	-0.0402348
45	0xbd103825	-0.035209794
46	0x3d0ec488	0.034855396
47	0xbd8f126f	-0.06985938
48	0xbd75abb5	-0.059978206
49	0x3e21a959	0.15787257
50	0x3d46635e	0.048434608
51	0x3ce45a13	0.027874982
52	0xbdba9a19	-0.09111423
53	0xbc4702b4	-0.012146641
54	0xbdf69888	-0.12040812
55	0x3c5263b5	0.012841155
56	0x3da2c443	0.0794759
57	0xbce2f1a0	-0.027703106
58	0xbb15d9b5	-0.002286536
59	0x3e4a1c90	0.19737458
60	0x3d2cc020	0.042175412
61	0x3cb7c285	0.022431621
62	0x3e3366d9	0.17519702
63	0x3e8553a6	0.2604038
64	0x3e806438	0.2507646
65	0x3e6045aa	0.21901575
66	0x3d2bf0d7	0.04197773
67	0x3df1d277	0.11807721
68	0x3e302fcf	0.17205738
69	0x3e24287f	0.16031073
70	0x3dbc50fc	0.09195134
71	0xbc00f433	-0.007870722
72	0xbd3860c6	-0.045014165
73	0x3e2d78e3	0.16940646
74	0x3dadeab8	0.08492035
75	0x3e3d53ab	0.18488948
76	0x3d0bf00d	0.034164477
77	0x3c46980f	0.0121212145
78	0x3e2c08c1	0.16800214
79	0x3e2c03ed	0.16798373
80	0x3dd6d5ef	0.10490023
81	0xbb3ffdab	-0.0029295485
82	0x3d7d7987	0.061883476
83	0xbd8ba0e0	-0.06817794
84	0x3cccaa99	0.024983691
85	0x3d323841	0.04351068
86	0x3e2e85c1	0.1704321
87	0x3e2cd6db	0.16878836
88	0xbdcde3a7	-0.10053187
89	0x3df68f60	0.12039065
90	0xbd93c762	-0.07215764
91	0xbdee524e	-0.11636792
92	0x3d2938e7	0.041314032
93	0xbd929ede	-0.07159208
94	0xbb43a094	-0.002985035
95	0xbdbbe3d0	-0.09174311
96	0xbc15dd8b	-0.009147058
97	0xbe015f74	-0.12634069
98	0x3e20317b	0.15643875
99	0x3d93315e	0.071871504
100	0xbcf06802	-0.02934647
101	0xbd47722e	-0.048692875
102	0x3d326b54	0.043559387
103	0x3d85de8d	0.06536589
104	0xbde5a2a9	-0.112126656
105	0xbc8afa84	-0.016965158
106	0x3d65ab47	0.056071546
107	0x3da84f29	0.082182236
108	0xbc589e37	-0.013221315
109	0xbcd8afa9	-0.026450949
110	0xbe31cecb	-0.17364042
111	0xbe0c7f6c	-0.13720483
112	0x3e093a5c	0.13401169
113	0xbdb138ae	-0.08653389
114	0xbda00e36	-0.078152105
115	0xbcf82751	-0.030292185
116	0x3d61e32c	0.05514829
117	0x3de3a7da	0.111159995
118	0x3d9402a7	0.072270684
119	0x3d88fda1	0.06689001
120	0xbcf039f5	-0.029324511
121	0xbc48ba6f	-0.0122514805
122	0xbd0c6715	-0.034277994
123	0x3bb6d7fc	0.0055799466
124	0x3d43bd18	0.047787756
125	0x3cf4a217	0.029862447
126	0xbdff8e0e	-0.12478267
127	0xbe01d97e	-0.12680623
128	0xbd82c79a	-0.06385727
129	0xbe06180b	-0.13095109
130	0x3e3d09bc	0.18460745
131	0x3d0f5d75	0.035001237
132	0xbbcef17d	-0.0063154087
133	0xbd8b4bbc	-0.068015546
134	0x3d6baf18	0.05754003
135	0xbd7c168e	-0.061544947
136	0xbc337df3	-0.010955322
137	0x3cf8b3a9	0.030359106
138	0xbdf52711	-0.11970342
139	0xba56f4ff	-0.00081999594
140	0xbd9c406a	-0.076294735
141	0xbe1ff5bf	-0.15621088
142	0x3e74ee7f	0.23919104
143	0x3bd66ded	0.006543866
144	0xbdc63622	-0.09678294
145	0xbe2c240c	-0.16810626
146	0x3e3d8286	0.18506822
147	0x3df2ddd5	0.11858717
148	0xbb2e91e0	-0.0026637241
149	0x3d350ca1	0.044201497
150	0x3d019d0a	0.031643905
151	0xbd346268	-0.04403916
152	0x3c947fbf	0.01812732
153	0x3e1cb27d	0.15302463
154	0xbdab8c13	-0.083763264
155	0x3d12c48e	0.03583198
156	0x3c6e6963	0.014551493
157	0x3b9b25b3	0.0047347187
158	0xbe11f9b2	-0.14255407
159	0xbafcbe55	-0.0019282798
160	0x3dd37796	0.103255436
161	0xbc634639	-0.013871723
162	0x3dae56de	0.08512662
163	0xbd1e5821	-0.038658265
164	0x3b51eca6	0.0032031923
165	0x3e341b45	0.17588528
166	0x3d711acb	0.058863442
167	0xbd9ae7ce	-0.075637445
168	0x3c9431ac	0.018090092
169	0x3e079805	0.13241585
170	0xbd85f7d2	-0.065414086
171	0x3de62575	0.11237613
172	0x3df82514	0.12116447
173	0x3d12de7a	0.0358567
174	0xbe0a2bbb	-0.13493244
175	0x3e218c18	0.15776098
176	0xbbfb68e0	-0.007672414
177	0xbdc50064	-0.09619215
178	0x3d7a51f3	0.06111331
179	0x3d5f4ad5	0.054514725
180	0xbd9fd363	-0.07803991
181	0x3e85bc4b	0.2612022
182	0xbe4d2c6e	-0.2003648
183	0xbd851702	-0.06498529
184	0x3dd24e00	0.102687836
185	0xbdca6e82	-0.09884359
186	0xbc407612	-0.0117469
187	0x3d32a2c4	0.043612257
188	0x3e0abf80	0.13549614
189	0x3d99972b	0.07499536
190	0x3ddef86d	0.10887227
191	0x3e60e494	0.21962196
192	0xbd9b12bd	-0.075719334
193	0x3ededc34	0.43527377
194	0x3d616cf6	0.055035554
195	0xbe2f283a	-0.17105189
196	0xbd93a5c7	-0.07209354
197	0x3e77f477	0.2421435
198	0x3e956b65	0.29183498
199	0xc0311843	-2.7671058
200	0xc0340f94	-2.8134508
201	0x4037c517	2.8714044
202	0xc01dcd32	-2.4656491
203	0x4039b0ba	2.9014115
204	0x40332f73	2.799771
205	0x4035d16a	2.8409066
206	0x4033cf40	2.8095245
207	0x40337487	2.8039873
208	0xc0264147	-2.5977342
209	0xc02f677e	-2.7406917
210	0xc02e8019	-2.7265685
211	0x4037c01c	2.8711004
212	0xc02e724f	-2.7257268
213	0x403a5382	2.911347
214	0x4034bfb6	2.824201
215	0x4038f578	2.8899822
216	0x4033a1da	2.8067536
217	0x4033c968	2.8091679
218	0xc0299e67	-2.650293
219	0x403a457e	2.9104915
220	0x40363d88	2.8475056
221	0xc0312061	-2.7676013
222	0x4035220e	2.8302035
223	0xc02af598	-2.6712399
224	0xc02eef38	-2.7333508
225	0x4035dd70	2.8416405
226	0xbe9585f8	-0.29203773
227	0x40375e5a	2.8651338
228	0xc0255764	-2.583459
229	0xbe0a9629	-0.13533844
230	0xbdcf4b96	-0.10121839
231	0x3e80e311	0.25173238
232	0xbe76d8be	-0.24106118
233	0x3e890ddc	0.26768386
234	0x3e82a5a5	0.25517002
235	0x3dad1213	0.08450713
236	0x3e5fd20f	0.21857475
237	0xbe31450f	-0.173115
238	0xc02624a5	-2.5959866
239	0x3d06d3b7	0.03291675
240	0x3d5632cb	0.052294534
241	0xbe0c4786	-0.13699159
242	0x3dd5476b	0.104140125
243	0xbe41639d	-0.18885656
244	0xbd913b4c	-0.07091388
245	0xbd8a797a	-0.06761451
246	0xbd96f46c	-0.073708385
247	0x3e27e7ed	0.16397066
248	0xc02cf17a	-2.7022386
249	0x3deb37d1	0.114852555
250	0x3d84fc2a	0.06493409
251	0xbd82b140	-0.06381464
252	0x3e2d7871	0.16940476
253	0xbe2efcc0	-0.17088604
254	0xbe209c52	-0.15684631
255	0x3e13bb4e	0.1442692

layer_1.bias f4 [134]
0	0xbd9dd56d	-0.07706723
1	0x4030464b	2.7542903
2	0x40bf7ad0	5.9837418
3	0x40ca8c14	6.3295994
4	0x40bd3d47	5.91373
5	0x40c300a0	6.0938263
6	0x40c11c45	6.034701
7	0x40c8f0a4	6.279375
8	0x41097c95	8.592916
9	0x40a55ea8	5.1678047
10	0x40d9c979	6.805844
11	0x40d54b6f	6.665458
12	0x40bf6e86	5.9822416
13	0x40e2eab2	7.0911493
14	0xbdb4184d	-0.087936975
15	0xbf15d8f9	-0.585342
16	0x40b782bd	5.7347093
17	0x40bf88cc	5.985449
18	0x40c0d73c	6.0262737
19	0x40cc12dc	6.377302
20	0x40c1eddc	6.0602856
21	0x40ab7822	5.3584146
22	0x40cf1423	6.471208
23	0x40c7c84f	6.2432017
24	0x40d5a3cf	6.676246
25	0xbeba5186	-0.36390322
26	0xbe84056a	-0.2578538
27	0xbca6ec96	-0.020376485
28	0x40b0a46a	5.52007
29	0x40c96b4a	6.294347
30	0xbe93384c	-0.2875389
31	0x40d0fc53	6.5308013
32	0x40d5f4df	6.6861415
33	0x40b6ad93	5.7086883
34	0x40bb9416	5.861827
35	0x40d87a45	6.7649255
36	0x40cc0216	6.3752546
37	0x40b8a27b	5.769834
38	0x40c8036f	6.250419
39	0xbdacab23	-0.08431079
40	0x40cb7019	6.357434
41	0x40b9f804	5.8115253
42	0x40ccd409	6.400883
43	0x40b9a56d	5.8014436
44	0x40c3ec98	6.122631
45	0x40d735e1	6.725327
46	0x40cfe7d0	6.4970474
47	0x40c946f9	6.2899137
48	0x3c82c116	0.015961211
49	0x4105ac3d	8.35455
50	0x40c82b23	6.2552657
51	0x40a9e0ba	5.3086824
52	0x40c6ac15	6.208506
53	0x40c3fe91	6.124825
54	0x40bf1805	5.971682
55	0x40e356f9	7.104367
56	0x40887b83	4.265077
57	0x40b81ee1	5.7537694
58	0x40ca5f76	6.324153
59	0x40996048	4.793003
60	0x40c75765	6.2294183
61	0x40c0b34e	6.021888
62	0x40c76a86	6.2317533
63	0x40ebe812	7.372079
64	0x40c584e3	6.1724715
65	0x40bec3bd	5.961394
66	0xbce6deff	-0.028182505
67	0x40c7054d	6.219397
68	0x40cde68c	6.434393
69	0x408c7a92	4.389962
70	0x40c8536d	6.260184
71	0x410a77f1	8.654283
72	0x40c1adec	6.0524807
73	0x40953af4	4.6634464
74	0x40b7bc9b	5.741773
75	0xbe0d5132	-0.13800505
76	0x40c805d2	6.2507105
77	0x40c44ec9	6.1346173
78	0x40ed8917	7.4229846
79	0x40d6993c	6.7062054
80	0x40d938f9	6.7882047
81	0x40c11d34	6.034815
82	0x40e1ed02	7.0601816
83	0x40be2b93	5.942819
84	0xbd911fff	-0.07086181
85	0x40c18424	6.0473804
86	0xbc2f3c2d	-0.010695499
87	0x41130a00	9.189941
88	0x40bada10	5.839119
89	0x4110c2d7	9.047568
90	0x410305ca	8.188913
91	0x40cd27a8	6.411091
92	0x40c73ee9	6.2264295
93	0x40db6179	6.8556485
94	0x40efc804	7.493166
95	0x4089cce1	4.3062596
96	0x40428c4e	3.0398135
97	0x40c467ed	6.1376863
98	0x40ca7f36	6.3280287
99	0x40c69fa1	6.206986
100	0x40bc1f48	5.8788185
101	0xbd995d4d	-0.07488499
102	0x40cc606c	6.3867702
103	0x40d5c308	6.6800575
104	0x40926344	4.5746174
105	0xbc152312	-0.0091026
106	0x40c79535	6.2369637
107	0x40d58779	6.672787
108	0x40c38e23	6.1111007
109	0x40c199a9	6.0500073
110	0xbe81543d	-0.2525958
111	0x40c56a55	6.16923
112	0x40cc090f	6.376106
113	0x3fddfc21	1.7342569
114	0x40ceaa55	6.4582925
115	0x38c619a6	9.446153e-05
116	0x40e19557	7.04948
117	0x3c8b0502	0.016970161
118	0xbcdf0aa2	-0.02722675
119	0x40c6c914	6.2120457
120	0x402512a6	2.5792632
121	0x40fa20e7	7.8165164
122	0x407667a8	3.8500767
123	0x40c72c42	6.2241526
124	0x40c335ea	6.1003313
125	0x40c8d70c	6.276251
126	0x403fcd82	2.9969182
127	0x40bd0bb6	5.9076796
128	0x40c6da48	6.2141457
129	0x40f8e634	7.778101
130	0x40c41489	6.1275067
131	0xbde589d3	-0.112079285
132	0x40d7181c	6.721693
133	0xbdfa1908	-0.122118056

layer_2.weight f4 [67, 134]
0	0xbd57689d	-0.05259
1	0x3d6bad65	0.05753841
2	0x3d3138ec	0.043267176
3	0x3c84e7cd	0.016223812
4	0xbc21e2e4	-0.009880755
5	0xbdbd2745	-0.09236006
6	0xbca770cb	-0.020439526
7	0xbd0552d3	-0.03254969
8	0xbbaa4211	-0.005195864
9	0x3d8a6fb5	0.06759588
10	0x3d0bc4bd	0.03412317
11	0x3c6c1808	0.014410026
12	0xbc8d4da9	-0.017248945
13	0xbdc015da	-0.09379168
14	0xbda3b31c	-0.07993147
15	0x3d0e31a1	0.0347153
16	0x3db0c394	0.086310536
17	0x3d99a28f	0.07501709
18	0x3d9c13dd	0.07620976
19	0xbd443123	-0.047898423
20	0xbce61b6d	-0.02808925
21	0xbd044fc1	-0.03230262
22	0xbd2a13a6	-0.041522644
23	0x3cf51dc8	0.029921427
24	0x3d9d8049	0.07690484
25	0xb90951f5	-0.0001309587
26	0xbb029979	-0.0019927903
27	0xbd812950	-0.06306708
28	0xbbb870f5	-0.0056287
29	0xbda38b2a	-0.07985528
30	0xbda6893f	-0.08131646
31	0x3cfac79c	0.03061276
32	0x3d3e545b	0.046467166
33	0x3da02c18	0.0782091
34	0x3d11309a	0.03544674
35	0x3ccb0c49	0.024786131
36	0xbd8daccc	-0.06917724
37	0xbd28ebd5	-0.041240532
38	0xbd9ddca8	-0.077081025
39	0xbd25be98	-0.040464967
40	0xbcd525a7	-0.02601893
41	0xbdafe073	-0.08587732
42	0x3d280f73	0.04103036
43	0x3d039c02	0.032131203
44	0xbc318700	-0.010835409
45	0xbd1be106	-0.038056396
46	0xbd88daca	-0.06682356
47	0xbdb116c4	-0.0864692
48	0xbd612389	-0.05496553
49	0xbdf6b284	-0.12045768
50	0xbd9fe955	-0.078081764
51	0x3c10b1bb	0.008831437
52	0x3c583ced	0.01319812
53	0x3b8d4266	0.004310894
54	0x3cf24e4d	0.029578352
55	0x3d97cf90	0.07412636
56	0xbe0d3d4a	-0.13792911
57	0xb99fcd9e	-0.0003048004
58	0x3b5c351d	0.0033600994
59	0x3dadb6b7	0.08482116
60	0xbc306c5f	-0.010768025
61	0xbc60ab88	-0.013712771
62	0x3d632967	0.055459406
63	0xbd97a346	-0.07404189
64	0xbd2ee964	-0.042703047
65	0xbd5c6059	-0.05380282
66	0x3d0dc7fc	0.034614548
67	0x3da76f2e	0.08175503
68	0xbd759fe8	-0.05996695
69	0x3d32c4d8	0.043644756
70	0xbd23c1a5	-0.039979596
71	0x3d8bac20	0.068199396
72	0x3c8eb392	0.01741961
73	0x3d934692	0.071911946
74	0xbd1fc664	-0.03900756
75	0xbcbd1f6b	-0.02308627
76	0x3d11c156	0.03558477
77	0xbda3912b	-0.07986673
78	0x3d6ea21f	0.05826008
79	0xbc5669a4	-0.01308671
80	0xbd83846a	-0.0642174
81	0x3d40bf02	0.04705716
82	0x3bb7212d	0.0055886717
83	0x3d1c8e5e	0.03822171
84	0x3af3318e	0.0018554197
85	0xbd98e39a	-0.074652866
86	0xbdc9d4be	-0.098550305
87	0xbd97cb9c	-0.07411882
88	0xbd1ff64d	-0.03905325
89	0x3d070897	0.032967176
90	0x3d300080	0.042969227
91	0x3c0d4fe2	0.008625003
92	0xbcb4712e	-0.022026625
93	0x3c509056	0.012729725
94	0x3d23fed3	0.04003794
95	0x3d6dcdd3	0.058057617
96	0x3e0080ad	0.12549086
97	0x3c58012b	0.013183872
98	0x3d302177	0.043000665
99	0xbd27d196	-0.04097136
100	0x3d4c9f17	0.049956407
101	0x3c9199fd	0.017773623
102	0xbbe85297	-0.0070899236
103	0xbd1510dc	-0.03639303
104	0xbc9ffdb2	-0.019530151
105	0x3c28e74e	0.010309054
106	0x3c693584	0.0142339505
107	0x3c8eebc0	0.017446399
108	0x3cb2e94f	0.021839766
109	0xbd42bc27	-0.047542717
110	0x3d8a4838	0.06752056
111	0xbd2c7e31	-0.042112533
112	0xbd31998a	-0.043359317
113	0x3d655f9d	0.055999387
114	0xbda64a64	-0.08119658
115	0x3c23147f	0.009953617
116	0xbcf43d86	-0.029814493
117	0xbc3faacb	-0.011698435
118	0xbd8bfda5	-0.06835488
119	0xbbdcf902	-0.006743551
120	0x3be56fd2	0.0070018554
121	0x3ce357d7	0.027751846
122	0x3cbd3004	0.023094185
123	0x3db3bf9f	0.08776783
124	0xbcbcff0b	-0.023070833
125	0xbdaf4ccc	-0.0855957
126	0x3d35da5d	0.0443977
127	0xbda06b8d	-0.07833014
128	0x3d85ee58	0.06539601
129	0xbda2656b	-0.079295
130	0x3d09d5c7	0.03365114
131	0xbe10f924	-0.1415754
132	0xbde53021	-0.111908205
133	0xbd8e7c47	-0.06957298
134	0xbdffa9f2	-0.12483586
135	0x3d1ce814	0.038307264
136	0x3e87997f	0.26484296
137	0x3e0d70c8	0.13812554
138	0x3e17601b	0.14782755
139	0x3e54ea0f	0.20792411
140	0x3e2c65de	0.16835734
141	0x3e488143	0.1958056
142	0x3eb3d508	0.35123467
143	0x3eb29a24	0.34883225
144	0x3e735290	0.23761964
145	0x3e9a6972	0.30158573
146	0x3e7dd6b5	0.24788935
147	0x3ec495d1	0.3839555
148	0xbdd7c238	-0.10535091
149	0xbdc965fc	-0.09833905
150	0x3de844d3	0.11341252
151	0x3bd79c0b	0.006579881
152	0x3ddd619f	0.10809635
153	0x3e14a2f5	0.14515288
154	0x3e3d8f9a	0.18511811
155	0x3d5b65ba	0.05356381
156	0x3f13f64f	0.5779771
157	0x3e52c910	0.20584512
158	0x3fdb5040	1.7133865
159	0x3d0c34dd	0.0342301
160	0xbe16be96	-0.1472114
161	0x3d19dd43	0.037564527
162	0xbdfdc08a	-0.123902395
163	0x3ed2f6d0	0.41203928
164	0x3d21b319	0.03947744
165	0x3e084e8e	0.13311216
166	0x3fc7c906	1.5608222
167	0x3d951ac8	0.07280499
168	0x3d958463	0.073006414
169	0x3e889c4b	0.26681742
170	0x3ddb4804	0.10707095
171	0x3cb02cef	0.021505801
172	0x3e46decf	0.19420932
173	0xbe1aa274	-0.15101033
174	0x3e4b6a19	0.19864692
175	0x3e93952c	0.28824747
176	0x3e0c7a65	0.13718565
177	0x3a87cf01	0.0010361375
178	0x3e6a4843	0.22879128
179	0x3f865103	1.0493473
180	0x3e172286	0.14759263
181	0x3ea51ab3	0.32246932
182	0xbd68f8ac	-0.056877777
183	0xbd3a1a82	-0.045435436
184	0x3ead403b	0.33838066
185	0x3e215759	0.15755977
186	0x3e7f8900	0.24954605
187	0x3e208671	0.15676285
188	0x3d8f81ac	0.07007155
189	0x402dc1c9	2.7149527
190	0xbdf37b02	-0.11888696
191	0x3da361b9	0.079776235
192	0x3e09a1a8	0.13440573
193	0x3dae4b0b	0.08510407
194	0x3de7c425	0.113167085
195	0x3e12852f	0.14308618
196	0x3e6437eb	0.22286956
197	0x3e6083d6	0.21925291
198	0x3e7e6e07	0.2484666
199	0x3e64459d	0.2229218
200	0xbe250041	-0.16113378
201	0x3e92abca	0.2864669
202	0x3e4e4dc3	0.20146851
203	0xbdece25b	-0.115666114
204	0x3e035176	0.12824044
205	0x3fac58e9	1.3464633
206	0x3e832a19	0.25618055
207	0xbe221077	-0.15826593
208	0x3e3a6fba	0.18206683
209	0xbd89e464	-0.06733015
210	0x3e6cb46f	0.23115705
211	0x3e114270	0.141855
212	0x40243815	2.565923
213	0x3fd5b52c	1.6695914
214	0x3fcbf551	1.593424
215	0x3e0ec4cc	0.1394226
216	0x3fd7d7a2	1.6862681
217	0x3e55f393	0.20893697
218	0xbe2f1ece	-0.17101595
219	0x3eb5eba9	0.35531357
220	0xbdad3476	-0.08457272
221	0x4079d853	3.9038284
222	0x3e5285eb	0.20558898
223	0x3d1e396c	0.03862898
224	0x3fe43bdf	1.7830771
225	0x3db3dc8f	0.087823026
226	0x3e17a4d3	0.14808969
227	0x3fd94a91	1.6975881
228	0xbd0df11e	-0.034653775
229	0x3c6a63e8	0.014306046
230	0xbd94c993	-0.0726501
231	0x3e07aa51	0.13248564
232	0x3ea43c23	0.3207713
233	0x3e1e1888	0.15439045
234	0x3e3ce4e6	0.18446693
235	0xbe067f08	-0.13134396
236	0x3e616b0e	0.22013494
237	0x3e9d58ff	0.3073196
238	0xbdba3fec	-0.090942234
239	0xbcecd749	-0.02891125
240	0x3e8abcdd	0.27097216
241	0x3e39da97	0.18149792
242	0x3de745d8	0.112926185
243	0x3e8c374f	0.27385947
244	0x3c1dd804	0.009634022
245	0x3dd0c3e8	0.10193616
246	0x3e192ccc	0.14958495
247	0xbdcd15c5	-0.10013918
248	0x3f20727a	0.6267468
249	0xbe3acc5c	-0.1824202
250	0x3ea94a18	0.33064342
251	0xbe266f92	-0.16253498
252	0x3cea40d4	0.028595366
253	0x3e3f90bd	0.18707557
254	0xbdd51bf0	-0.10405719
255	0x40b126a2	5.535966

layer_2.bias f4 [67]
0	0x3e303830	0.17208934
1	0x40c6158e	6.190131
2	0x40c488af	6.141685
3	0xbe1e4a62	-0.15458062
4	0xbb8d84b9	-0.0043188003
5	0x3ca7a213	0.020463025
6	0xbcd93753	-0.026515638
7	0x40e6ad26	7.2086363
8	0x40ba1d5e	5.816085
9	0x40e4cc11	7.1499104
10	0xbdc0d4c1	-0.094155796
11	0x3d1ce4bb	0.038304072
12	0x3f241e39	0.64108616
13	0xbd53c847	-0.05170467
14	0x3fca7f9f	1.5820197
15	0xc0afefd3	-5.4980254
16	0xbfcc2657	-1.59492
17	0xbd457010	-0.048202574
18	0x3d46b49d	0.04851209
19	0xbbd2322f	-0.0064146738
20	0x40b3eddb	5.622785
21	0x40af52a3	5.4788375
22	0xbcd4b3b1	-0.02596459
23	0x3d8ee401	0.06977082
24	0x40715085	3.7705395
25	0x40ba863d	5.8288865
26	0xbd33bcd2	-0.043881245
27	0x40515032	3.2705197
28	0xbdc55cd2	-0.09636845
29	0x3de3f09f	0.11129879
30	0xbe80f39b	-0.25185856
31	0xc0175501	-2.3645632
32	0xbc740d74	-0.014895786
33	0x3b96399e	0.004584505
34	0x3cb17030	0.02165994
35	0xbea7fb9b	-0.32809147
36	0x3fe87b95	1.8162714
37	0xc07f397a	-3.987883
38	0x40c83fcf	6.257789
39	0xbd9c5f28	-0.07635337
40	0xc044dc3f	-3.0759428
41	0xbe91231d	-0.28347102
42	0x3eafbe22	0.34324747
43	0x40c789fe	6.2355947
44	0xc08e6977	-4.450374
45	0x40c51fd3	6.160135
46	0xbd6a1d88	-0.05715707
47	0x3f2f9ffb	0.68603486
48	0xbe326c44	-0.17424113
49	0xbd6c1eed	-0.05764668
50	0xbc8f389d	-0.01748305
51	0x40e2bb02	7.085328
52	0x4086bf76	4.2108717
53	0xbc26f218	-0.010189556
54	0x3d3a2b44	0.045451418
55	0xbd0463fb	-0.03232191
56	0xbf9a2ad3	-1.2044319
57	0x40e48255	7.1409097
58	0x3befc6b8	0.0073173903
59	0xbd56f071	-0.052475397
60	0x40e49fa5	7.144488
61	0x40c2abdb	6.0834785
62	0x40885852	4.2607813
63	0xbb84536c	-0.004038265
64	0x40a09613	5.0183196
65	0x3eac13f2	0.33608967
66	0x40213204	2.5186777

layer_3.weight f4 [1, 67]
0	0xbde5b4b9	-0.11216111
1	0x3db0cbd5	0.08632628
2	0x3db9ccc5	0.0907226
3	0xbd1b329d	-0.037890065
4	0xbb21a16a	-0.002466286
5	0x3cb7071b	0.022342255
6	0xbab0cb80	-0.0013488382
7	0x3e261a06	0.16220865
8	0x3d321ceb	0.04348461
9	0x3e4a5d26	0.19762096
10	0x3d1e7c8f	0.038693007
11	0xbcf79958	-0.030224487
12	0x3bb3a107	0.0054818424
13	0xbcd0278e	-0.025409486
14	0x3c807195	0.01567916
15	0xbe3ea25a	-0.1861662
16	0xbd20e7ec	-0.039283678
17	0x3b34aa18	0.0027567204
18	0xbc763814	-0.0150280185
19	0xbd5a2873	-0.05326123
20	0x3d0b0836	0.033943377
21	0x3d133e19	0.035947893
22	0x3d158b80	0.03650999
23	0xbdc28c6b	-0.09499439
24	0x3ce2f60e	0.027705219
25	0x3d433c6c	0.047665045
26	0x3bb60c8b	0.0055556945
27	0x3c8a3cd3	0.016874706
28	0xbd04210a	-0.03225807
29	0xbe570f7c	-0.21002
30	0xbc7578bc	-0.014982399
31	0xbc6b0b44	-0.014345948
32	0xbc5c442d	-0.013443989
33	0xbb9b4826	-0.0047388254
34	0xbd95be79	-0.073117204
35	0xbbb4a2b5	-0.0055125603
36	0x3c73fe27	0.014892138
37	0xbd21339b	-0.039355855
38	0x3ddd9d2e	0.10820995
39	0xbcb726b5	-0.022357324
40	0xbcde1f78	-0.027114615
41	0xbc994bc1	-0.01871288
42	0xbe81da46	-0.25361842
43	0x3da83146	0.08212523
44	0xbd0a3acc	-0.03374748
45	0x3da74700	0.08167839
46	0xbd6a56cb	-0.05721168
47	0x3b339daa	0.0027407208
48	0x3a219a21	0.00061646296
49	0x3cc23d35	0.023710826
50	0xbc9557ca	-0.018230338
51	0x3e459ce9	0.19298138
52	0x3cbdcb83	0.023168331
53	0xbd98c35d	-0.074591376
54	0xbd4ff6c3	-0.05077244
55	0xbcf1ae9c	-0.029502206
56	0x3d04a62a	0.03238503
57	0x3e569105	0.20953758
58	0xbcc67cb8	-0.024229392
59	0xbcc5cb00	-0.02414465
60	0x3e8141e0	0.2524557
61	0x3dab478c	0.08363256
62	0x3cc8f53a	0.024530996
63	0x3d073de6	0.033018015
64	0x3cc5ac47	0.02413
65	0xbbd37fae	-0.0064544296
66	0x3c35860c	0.011079323

layer_4.weight f4 [134, 199]
0	0xc0c935b2	-6.2878046
1	0xc0c885e0	-6.266342
2	0x40d83a11	6.757088
3	0xc0b1f1c1	-5.560761
4	0x40db76e2	6.858262
5	0x40d2e845	6.590853
6	0x40d5f693	6.6863494
7	0x40d33207	6.599857
8	0x40d39ee6	6.613147
9	0xc0bcd28a	-5.9007006
10	0xc0c4ef70	-6.154228
11	0xc0c98a15	-6.2981057
12	0x40d14619	6.539807
13	0xc0c424e3	-6.129503
14	0x40d37cbe	6.6089773
15	0x40d33f74	6.6014957
16	0x40d4c6d0	6.649269
17	0x40d3fbcc	6.624487
18	0x40d35ea9	6.605305
19	0xc0be04b7	-5.9380755
20	0x40d7bd2f	6.7418437
21	0x40d20cee	6.5640783
22	0xc0caf83f	-6.3428035
23	0x40d0f3b4	6.529749
24	0xc0c40fbc	-6.1269207
25	0xc0c938c8	-6.2881813
26	0x40dc55f8	6.885494
27	0x3b1ec29d	0.0024224885
28	0x40d2e628	6.5905952
29	0xc0bb1667	-5.8464847
30	0xbfb4a4d7	-1.4112805
31	0xbfdc201c	-1.7197299
32	0x40068a84	2.1022043
33	0xbff2c30f	-1.8965777
34	0x4002f02b	2.0459087
35	0x3ffc137b	1.9693445
36	0xbf092b49	-0.5358167
37	0x400b58b4	2.177289
38	0xbf82f107	-1.0229806
39	0xc0be8f48	-5.9549904
40	0x3e69717a	0.22797194
41	0x3e0e3ee5	0.1389118
42	0xbef5e4a4	-0.48026
43	0x3e3c9a84	0.18418318
44	0xbe38c08c	-0.18042201
45	0xbe8ea268	-0.2785828
46	0xbe93397f	-0.28754804
47	0xbea6498d	-0.3247799
48	0x3d97791c	0.07396147
49	0xc0bde66c	-5.9343777
50	0x3ee726a9	0.45146683
51	0x3f10f322	0.5662099
52	0xbf0c7c7e	-0.5487746
53	0x3ef517b7	0.47869655
54	0xbeea72c1	-0.45790675
55	0xbeea1f9e	-0.45727247
56	0x3f2f1f5e	0.6840724
57	0xbebd0c5e	-0.36923498
58	0x3eed9e63	0.46409902
59	0xc0bd4386	-5.9144926
60	0x40d604a8	6.6880684
61	0x40d3c3e3	6.617662
62	0x40dbcd32	6.8687983
63	0xc0860713	-4.1883636
64	0xc0a82761	-5.254807
65	0x40ddc4b3	6.930261
66	0xc0cace3e	-6.337676
67	0xc0c9092b	-6.282369
68	0xc0c777b3	-6.2333617
69	0xc0bf1bfb	-5.9721656
70	0x40d3bdad	6.616904
71	0x40d45bc6	6.636203
72	0x3d9ec663	0.07752683
73	0x40d740f1	6.7266774
74	0xc0c1bf42	-6.054597
75	0xc0b780f9	-5.7344937
76	0xc0c66331	-6.1996083
77	0xc0cc68dc	-6.3878
78	0xc0ba8cfd	-5.8297105
79	0xc0bb2ae5	-5.848986
80	0x40d076a4	6.5144825
81	0x40d2a8c5	6.5831017
82	0x40d1a564	6.5514393
83	0xc09778f3	-4.7335143
84	0x3f01f198	0.5075927
85	0x3f044525	0.51668006
86	0xc0c78468	-6.234913
87	0xc0b8636d	-5.762137
88	0xc0ca8ae9	-6.329457
89	0xc0bccca7	-5.899982
90	0xc0abc516	-5.3678083
91	0x40ce6ac9	6.4505353
92	0xc0b3008a	-5.593816
93	0x40cbfff1	6.374993
94	0xc0ab4434	-5.3520756
95	0x40ccab3c	6.3959026
96	0xc0b1c8c7	-5.555759
97	0x40cb9280	6.3616333
98	0xc09a70c4	-4.8262653
99	0x402fbf23	2.746041
100	0x400aed53	2.1707351
101	0x4025fdff	2.5936277
102	0xc09ec709	-4.9617963
103	0xc0b24b16	-5.571666
104	0x3fd9f8a9	1.702901
105	0x40279a42	2.6187901
106	0x40121811	2.282719
107	0x3fe2afcb	1.7709898
108	0xbb4978eb	-0.0030742239
109	0x40367b06	2.8512588
110	0x403cdfda	2.9511628
111	0x405d5c93	3.4587753
112	0x403d58e2	2.95855
113	0x4052af36	3.291944
114	0x405b0ae4	3.4225397
115	0x40241a20	2.5640945
116	0x40458a52	3.0865674
117	0x403faa26	2.99476
118	0x40d1a7ce	6.551734
119	0x403c2e05	2.9403088
120	0x40416b5a	3.0221772
121	0x405e095e	3.4693217
122	0x4043ffcb	3.0624874
123	0x40cf52ae	6.4788427
124	0x404dad9e	3.2137218
125	0x405461c8	3.318468
126	0x40652ad0	3.580738
127	0x40267b5c	2.6012793
128	0x4036a47e	2.8537898
129	0x404ffff2	3.2499967
130	0x4048a5ca	3.135119
131	0x40476ac4	3.1158915
132	0x40c7ed02	6.2476816
133	0x4071a577	3.7757242
134	0x405026cc	3.252368
135	0x403cfd8d	2.9529755
136	0x404a5584	3.1614695
137	0x403d6d0b	2.9597805
138	0x402229bd	2.5337975
139	0x404635e9	3.0970404
140	0x402a55d3	2.6614883
141	0x4060b0c9	3.51079
142	0x40374d61	2.8640978
143	0x40cb98cd	6.3624024
144	0x404e8106	3.226625
145	0x4050bf6c	3.2616835
146	0x404d6c41	3.2097323
147	0x4033a617	2.8070123
148	0x40439666	3.0560546
149	0x403ba15d	2.9317238
150	0x406bb458	3.6828823
151	0x401f6987	2.4908159
152	0x403ae47f	2.9201963
153	0x40575897	3.364782
154	0x4047913c	3.1182394
155	0x404a05d4	3.1566057
156	0x4050faab	3.2652996
157	0x40564367	3.347864
158	0x40cdbdb2	6.429406
159	0x404c9468	3.196558
160	0x4051eaae	3.2799487
161	0x40458988	3.0865192
162	0x4042e066	3.0449462
163	0x40c59ec8	6.1756325
164	0x4059d9ab	3.4039104
165	0x4042a3fd	3.041259
166	0x40748283	3.8204658
167	0x401d5625	2.4583828
168	0x407e999c	3.9781256
169	0x407c188e	3.9389987
170	0x407002d5	3.7501729
171	0x405d838e	3.4611545
172	0x403f17db	2.985831
173	0x4036e333	2.8576171
174	0x40520c76	3.2820106
175	0x40501eca	3.2518792
176	0x40406211	3.0059855
177	0x402512fe	2.5792842
178	0x40c78b76	6.235774
179	0x404c30a5	3.190469
180	0x40612254	3.5177202
181	0x40493577	3.1438882
182	0x40270733	2.6098144
183	0x40cc78cc	6.3897457
184	0x4067594a	3.6148248
185	0x40494acc	3.1451902
186	0x40585e59	3.3807585
187	0x4034b8d1	2.8237803
188	0x401911db	2.3917148
189	0x405cd48a	3.4504724
190	0x4038f49f	2.8899305
191	0x406e0498	3.7190304
192	0x40c32be7	6.099109
193	0x407d0d35	3.953931
194	0x4049b6f6	3.151792
195	0x40332a24	2.799447
196	0x405eec96	3.48319
197	0x4041e187	3.02939
198	0x40681db9	3.6268141
199	0xc0f83be7	-7.7573123
200	0xc0f578bf	-7.6709895
201	0x40fa4687	7.8211093
202	0xc0e939f1	-7.288323
203	0x40f8dd22	7.7769938
204	0x40f8bce0	7.773056
205	0x40fa5c21	7.823746
206	0x40f909bd	7.7824388
207	0x40f913ec	7.783682
208	0xc0f3aee1	-7.6150975
209	0xc0f46795	-7.6376443
210	0xc0f8241e	-7.754409
211	0x40fb27b0	7.8485947
212	0xc0f62449	-7.6919293
213	0x40e068eb	7.0128074
214	0x40f85091	7.759835
215	0x40fc9bb3	7.8940063
216	0x40f8f471	7.779839
217	0x40fc178f	7.877876
218	0xc0f091ad	-7.5177827
219	0x40f9e15f	7.808761
220	0x40f81730	7.7528305
221	0xc0f96b8b	-7.794378
222	0x40fbf27d	7.8733506
223	0xc0f31afb	-7.5970435
224	0xc0f8294e	-7.755042
225	0x40f7ed75	7.7477365
226	0xbf496a5c	-0.78677917
227	0x40fb1461	7.8462377
228	0xc0f143a9	-7.5395093
229	0xbe8b6e74	-0.27232707
230	0xbeb704e6	-0.35745925
231	0x3e8fecb2	0.28110272
232	0xbeb7e968	-0.35920262
233	0x3ea8f4a0	0.32999134
234	0x3e9e2596	0.3088805
235	0xbdc0bee5	-0.0941141
236	0x3eae78a6	0.34076422
237	0xbe6c6c25	-0.23088129
238	0xc0f11478	-7.5337486
239	0x3d001905	0.03127386
240	0xbcb0ca4b	-0.021580836
241	0xbe1bfffb	-0.15234368
242	0xbd2819c7	-0.04104021
243	0xbdf5895e	-0.11989091
244	0xbd532ebd	-0.051558245
245	0xbdce4dd8	-0.10073441
246	0xbe0c9ed7	-0.13732468
247	0xbc73316b	-0.014843325
248	0xc0f1e2ce	-7.558936
249	0x3dc0b5ca	0.094096735
250	0x3d1c5b34	0.038172916
251	0xbd5b0c9e	-0.05347883
252	0x3df12dca	0.11776312
253	0xbd88146e	-0.06644522
254	0xbc0b4c7c	-0.008502122
255	0x3dd0c960	0.10194659

layer_4.bias f4 [134]
0	0x40cb2de8	6.349354
1	0x40f9372d	7.7879853
2	0xbbcac41f	-0.0061879302
3	0x40e8ae5a	7.271283
4	0x40d762e3	6.730821
5	0x41011344	8.0672035
6	0x41091db9	8.5697565
7	0x3d21f110	0.039536536
8	0x40e08026	7.015643
9	0xbdfead51	-0.12435401
10	0x3b75a1ae	0.0037480402
11	0xbf25babb	-0.64738053
12	0x40f37a8e	7.6087103
13	0x40e3c782	7.118104
14	0x40dcf241	6.904572
15	0x40d9efe6	6.8105345
16	0x40d257ab	6.5732017
17	0x40da8f43	6.829988
18	0xbd8ff5e9	-0.070293255
19	0x40102126	2.2520232
20	0x40d8020d	6.7502503
21	0x40d986ad	6.79769
22	0x40f2c426	7.586444
23	0xbdb3b18c	-0.08774099
24	0x40dc1a77	6.8782306
25	0xbe0c94ff	-0.13728712
26	0x40ee084e	7.4385138
27	0x40eecfc7	7.4628634
28	0x40d17e26	6.546649
29	0x40d81bc3	6.753389
30	0x40d6cbd7	6.712383
31	0x40e7a871	7.2393117
32	0x40d23100	6.5684814
33	0x40e414e5	7.1275506
34	0xbe8f2191	-0.27955297
35	0x40d83b2c	6.757223
36	0x40d53498	6.66267
37	0x4106f5d2	8.435015
38	0x3cd814d0	0.026377112
39	0x40e1964d	7.0495973
40	0xbdb373c8	-0.08762318
41	0x40ce0c1f	6.4389796
42	0x3f6ad804	0.91735864
43	0x40c9dd6b	6.3082786
44	0x40e719fc	7.221922
45	0x4117beb5	9.484059
46	0x3f1ecbd4	0.6202977
47	0x40d1d225	6.5569024
48	0x40c87d16	6.2652693
49	0x40e12d69	7.036793
50	0x40e1d5b0	7.057335
51	0x40d28c30	6.5796127
52	0x40ee449d	7.4458756
53	0x40e24c7d	7.071837
54	0xbe5f9c12	-0.2183688
55	0x40d3b5e1	6.615952
56	0x40cde5d3	6.4343047
57	0x4100764c	8.028881
58	0x40ced4ed	6.463492
59	0xbd790cf0	-0.060803354
60	0x40dedc7b	6.964414
61	0x40d66109	6.699345
62	0x40cb28e8	6.3487434
63	0x40e54818	7.1650505
64	0x40dab8ae	6.835044
65	0x40cd5162	6.4161844
66	0x41064670	8.392197
67	0x410313be	8.19232
68	0x409a5d37	4.823879
69	0x40c40eda	6.126813
70	0x40d5fef5	6.6873727
71	0x40ec9ea0	7.3943634
72	0x40cf77b2	6.4833612
73	0xbc3edafe	-0.0116488915
74	0x40d7a01f	6.738296
75	0x40d23bd6	6.569804
76	0xbecd4201	-0.4008942
77	0xbf38dae8	-0.72209024
78	0x40eb0cc7	7.3453097
79	0x41030e2a	8.190958
80	0x40d00e1f	6.501724
81	0x40d7298e	6.7238226
82	0x40ce4395	6.4457498
83	0x40dc7698	6.889477
84	0x40ea07c5	7.3134484
85	0x40c1b7e5	6.053698
86	0x40e69b9a	7.2064943
87	0x40c78dc7	6.236057
88	0x40e0269e	7.004714
89	0x40b5845b	5.6724067
90	0x409550a9	4.666096
91	0x41032f2f	8.199019
92	0x40de26e7	6.942249
93	0x40d02b35	6.5052743
94	0x40651786	3.5795608
95	0x40a10dfd	5.0329576
96	0xbbe33fdc	-0.006935103
97	0x40f1149c	7.533766
98	0x40cf68f1	6.48156
99	0x40f2585d	7.5732865
100	0x40f409a9	7.626179
101	0x40de1dc6	6.9411345
102	0x40ce9389	6.4555097
103	0x40e80ab2	7.2513056
104	0x40bee3df	5.9653163
105	0x40e0401e	7.007827
106	0x40d0c3e4	6.5239124
107	0x40b7ae56	5.7400312
108	0x40d15398	6.5414543
109	0x40d41cb4	6.628504
110	0x40df43e4	6.9770374
111	0x40e7f48a	7.248601
112	0x40d92935	6.78628
113	0x40d7da9d	6.745436
114	0x40f11c6d	7.53472
115	0x41104524	9.01688
116	0xbdd77b07	-0.105215125
117	0x40cdfc43	6.4370437
118	0x40d77b25	6.7337823
119	0xbd546380	-0.051852703
120	0x40aee1f8	5.465084
121	0x40d79309	6.7366986
122	0x40da7eb1	6.8279653
123	0x4101a1d9	8.102014
124	0x40b763d1	5.7309346
125	0x40df3166	6.97478
126	0x40f220fe	7.5665274
127	0x40c273d8	6.076641
128	0x40e0624f	7.0120006
129	0x40d16048	6.543003
130	0x40d9df40	6.808502
131	0x40b96888	5.79401
132	0x40ee19f5	7.4406686
133	0x41019d0e	8.100843

layer_5.weight f4 [67, 134]
0	0xbc55a89c	-0.013040688
1	0x3c83c607	0.016085638
2	0xbb9feac1	-0.00488028
3	0xbdbe5c5e	-0.092949614
4	0xbd9e50f9	-0.07730288
5	0x3d90ec14	0.07076278
6	0xbd4ef6ed	-0.050528456
7	0x3d1e24b4	0.03860922
8	0xbd47ae52	-0.04875023
9	0xbd17b0e3	-0.037033927
10	0xbc952df3	-0.018210387
11	0xbd1758cf	-0.03694993
12	0x3b7280df	0.0037003083
13	0x3d9b2252	0.075749055
14	0xbd2157a3	-0.039390218
15	0xbd0f029a	-0.03491459
16	0x3d8206f4	0.063489825
17	0xbcf12af5	-0.029439429
18	0xbc2d55be	-0.010579525
19	0xbd1f1b52	-0.038844414
20	0xbda19dc6	-0.07891421
21	0xbc25ee3a	-0.010127598
22	0x3d1ccef8	0.03828332
23	0x3db4d99d	0.08830569
24	0xbdcaa051	-0.09893859
25	0xbc5073a6	-0.012722885
26	0x3c235f4a	0.009971449
27	0xbd87b2a4	-0.0662587
28	0x3d8efae9	0.06981451
29	0x3d0a1bc6	0.033717893
30	0x3d5983e3	0.053104293
31	0xbda02d95	-0.07821194
32	0xbdafbde6	-0.08581142
33	0xbcfc4443	-0.030794268
34	0x3d0979e7	0.03356352
35	0xbb2b10a2	-0.0026102443
36	0x3bb97a3a	0.0056603225
37	0x3cbbbcbb	0.022917142
38	0x3ca40941	0.020023944
39	0x3c08e744	0.008355919
40	0x3c8d8415	0.017274896
41	0xbd9046c3	-0.07044747
42	0xbd943ffb	-0.07238766
43	0x3c2e061e	0.010621576
44	0xbd706235	-0.058687408
45	0xbc243cd2	-0.010024266
46	0x3c0643f4	0.008194912
47	0x3ceb98ab	0.028759321
48	0xbdf8cb26	-0.121481225
49	0x3cc1c0cc	0.023651503
50	0x3b17ae56	0.0023144684
51	0x3d405a15	0.04696091
52	0x3d73a2be	0.059481375
53	0xbd4afea3	-0.049559247
54	0x3db9ab5d	0.09065888
55	0x3dbee2ff	0.0932064
56	0xbd52822a	-0.051393665
57	0xbe0572f9	-0.1303214
58	0x3d8082c4	0.062749416
59	0xbd842bd2	-0.064536706
60	0xbc7cb5d0	-0.015424207
61	0xbd283915	-0.041070063
62	0xbd09928f	-0.033587035
63	0x3d07620f	0.0330525
64	0x3d3b9084	0.045792118
65	0xbdc9f660	-0.098614454
66	0x3d0856b4	0.03328581
67	0xbd97fd01	-0.074213035
68	0x3c9d02bb	0.019166341
69	0xbd82f465	-0.06394271
70	0xbdbe6ec6	-0.09298472
71	0xbd2f3ac7	-0.042780664
72	0xbdec56b9	-0.115399785
73	0x3d1147e2	0.035468943
74	0x3c50de6c	0.012748342
75	0xbc989372	-0.018624995
76	0xbca35e15	-0.019942323
77	0xbd80b68d	-0.06284819
78	0x3d9a3323	0.07529285
79	0xbcf07bc2	-0.029355887
80	0xbd8b58ec	-0.0680407
81	0xbce4498f	-0.027867107
82	0x3db7ddf4	0.08977881
83	0x3cc75782	0.02433372
84	0xbcccb856	-0.024990242
85	0xbc573521	-0.0131352255
86	0x3dab6d6b	0.08370479
87	0x3c96fea2	0.018431965
88	0x3c8c1ea0	0.017104447
89	0xbdc4b7ac	-0.09605345
90	0x3e02c721	0.12771274
91	0xbd1309f0	-0.03589815
92	0x3d471911	0.04860789
93	0xbd438d48	-0.04774216
94	0xbd7a6c32	-0.06113834
95	0x3da253e7	0.07926159
96	0xbaafb53e	-0.0013405455
97	0xbcb9d8f5	-0.022686461
98	0x3d4e755e	0.0504049
99	0xbc841fae	-0.016128387
100	0x3da2311e	0.079195246
101	0xbd9108f0	-0.07081783
102	0x3d38de5f	0.045133945
103	0x3d71b1f7	0.05900761
104	0x3d40ee0d	0.047102023
105	0x3cb3c245	0.02194322
106	0x3da63958	0.08116406
107	0x3d0f2705	0.03494932
108	0xbcabce4a	-0.02097239
109	0xbbbf425e	-0.005836769
110	0xbdcae1e0	-0.099063635
111	0xbdb78e8b	-0.08962735
112	0x3cf2522e	0.029580202
113	0xbdc3c326	-0.09558706
114	0xbdca6097	-0.09881704
115	0x3c3a0055	0.011352618
116	0x3da9a3cc	0.08283195
117	0x3d82ec04	0.06392673
118	0x3d3ae57d	0.045629013
119	0x3d11726c	0.03550951
120	0xbd317360	-0.04332292
121	0xbd99a49e	-0.07502101
122	0x3b3d868c	0.0028919308
123	0x3d47dba8	0.048793465
124	0xbe02d9ce	-0.12778398
125	0xbcfc7286	-0.030816328
126	0x3d10058e	0.035161547
127	0xbcc452fa	-0.023965348
128	0x3d23f364	0.040027037
129	0x3d2fcc4e	0.04291945
130	0xbd75af00	-0.059981346
131	0xbe04aa14	-0.12955505
132	0xbcea27ee	-0.028583493
133	0xbda77d56	-0.08178203
134	0x3d6e1ab8	0.05813095
135	0x3de0776a	0.109602764
136	0x3ba84a68	0.005135823
137	0x381b8888	3.7082034e-05
138	0xbcf0ddb2	-0.029402588
139	0x3d6eaa64	0.058267966
140	0x3ce7743e	0.02825367
141	0xbc82a6fa	-0.015948761
142	0x3d34969c	0.044088945
143	0x3d0aaaba	0.033854224
144	0xbce5df64	-0.028060623
145	0x3d3ac511	0.045598093
146	0xbd3599b1	-0.044336025
147	0x3da8ff2b	0.082517944
148	0xbc78b2da	-0.01517936
149	0xbde6e677	-0.112744264
150	0x3bc86eaa	0.006116708
151	0xbe503cc3	-0.20335679
152	0x3d1314ff	0.035908695
153	0xbcebc1d2	-0.028778944
154	0x3dc399b1	0.09550799
155	0x3db92e25	0.090420045
156	0xbd7fc22b	-0.062441032
157	0xbdb5ec3b	-0.08882948
158	0x3d772231	0.06033534
159	0xbcce8597	-0.025210185
160	0x3c19dbbc	0.009390768
161	0x3dc48aac	0.09596762
162	0xbe463696	-0.1935676
163	0xbb71079e	-0.0036778222
164	0x3dab2b49	0.08357865
165	0xbca84417	-0.02054028
166	0xbd366ba0	-0.044536233
167	0xba432e27	-0.0007445537
168	0x3dbc6ccd	0.092004396
169	0xbd5d5907	-0.05403998
170	0x3dd53fe9	0.104125805
171	0xbcb690c2	-0.022285823
172	0xbc2eed8f	-0.010676756
173	0xbd240ffa	-0.0400543
174	0xbd50d850	-0.05098754
175	0xbdf19c91	-0.11797441
176	0xbbe1764d	-0.0068805576
177	0x3d8f3636	0.06992762
178	0x3d81c801	0.06336976
179	0x3d0abd1f	0.033871766
180	0xbdb09669	-0.086224385
181	0x3d0766ef	0.03305715
182	0xbd3db4a9	-0.04631487
183	0xbd79b7bb	-0.060966235
184	0xbd84d151	-0.064852364
185	0x3dc937ee	0.09825121
186	0x3dc77e5c	0.09740898
187	0xbd471147	-0.04860046
188	0x3d36f48d	0.044666816
189	0xbe3a56d6	-0.18197188
190	0x3d7857de	0.06063067
191	0xbd19f57a	-0.03758762
192	0xbd90b8c1	-0.07066489
193	0x3d1ddec6	0.03854253
194	0xbe2b69c2	-0.16739562
195	0x3dbf32de	0.09335874
196	0xbbaf36db	-0.0053471155
197	0x3d96ef78	0.07369894
198	0xbc96289f	-0.018329917
199	0xbcf5d98d	-0.030010963
200	0xbc6c6b50	-0.014429882
201	0x3d1904df	0.03735816
202	0x3acef9b6	0.0015790972
203	0x3c6ffcaf	0.014647647
204	0xbd2067ee	-0.039161615
205	0xbc1ba3dc	-0.009499516
206	0xbcf9fa51	-0.030514868
207	0x3d6a0d1d	0.057141412
208	0x3dd0e373	0.101996325
209	0x3d4f125b	0.050554615
210	0xbb627e51	-0.0034560154
211	0xbd8b5ed9	-0.068052
212	0x3d47c1ae	0.04876869
213	0xbd07a984	-0.033120647
214	0xbe0bd2e7	-0.13654672
215	0xbe4a31c4	-0.19745547
216	0xbcd45466	-0.02591915
217	0x3d2e2bf1	0.042522375
218	0xbb230361	-0.002487384
219	0x3d905c18	0.070488155
220	0xbe039255	-0.1284879
221	0xbd3c7476	-0.046009503
222	0x3dcf5382	0.1012335
223	0xbdd7cd78	-0.10537237
224	0x3d332d7d	0.043744553
225	0x3c5db5ab	0.013532083
226	0xbe2e3da0	-0.17015696
227	0xbd0bcc39	-0.03413031
228	0x3d315441	0.04329324
229	0xbd9e121a	-0.07718296
230	0xbd582980	-0.052773952
231	0x3c542e32	0.012950467
232	0x3c534504	0.012894873
233	0xbc7ebb3e	-0.015547572
234	0x3dc3d3a8	0.095618546
235	0xbbf9b9cb	-0.007621025
236	0x3d6ce713	0.057837557
237	0xbbc0e0ba	-0.0058861645
238	0x3d599d1c	0.053128347
239	0xbd9345dc	-0.07191059
240	0x3dadab4f	0.0847994
241	0xbcf437df	-0.029811798
242	0xbb771d2f	-0.0037706604
243	0xbd059cd8	-0.03262028
244	0xbd40da91	-0.04708344
245	0x3cf1c221	0.029511513
246	0xbe014b4f	-0.12626384
247	0x3c84748e	0.016168859
248	0x3cbf9ae3	0.023389285
249	0x3c397f29	0.011321821
250	0x3d2ca50e	0.042149596
251	0xbcf1026a	-0.029420096
252	0xbd880ea3	-0.06643417
253	0x3d45e3cc	0.048312947
254	0x3be896fc	0.007098077
255	0xbdb3926d	-0.08768163

layer_5.bias f4 [67]
0	0xbc700683	-0.01464999
1	0xbe1bab34	-0.15202028
2	0xbd79208e	-0.060822062
3	0xbd7cf128	-0.061753422
4	0x40e08c72	7.017144
5	0x40df028b	6.9690604
6	0xbbc030dc	-0.0058651995
7	0xbd2362f2	-0.039889283
8	0x40df4eee	6.978385
9	0xbb7735ea	-0.0037721344
10	0x40e1bdad	7.054404
11	0xba8011df	-0.0009770951
12	0x3d7848f4	0.06061645
13	0x40e691fb	7.20532
14	0x3d4c6b12	0.049906798
15	0xc08802e4	-4.250353
16	0xbdaa056f	-0.083018176
17	0xc0a24e6b	-5.0720725
18	0x3d803fcd	0.06262169
19	0xc05c1e87	-3.4393632
20	0x40d07eef	6.515495
21	0x40ca170a	6.3153124
22	0x40d4d519	6.651013
23	0xbe193e25	-0.14965113
24	0x40ced6c5	6.463717
25	0xbd92ebd5	-0.07173888
26	0x3ccd23de	0.025041517
27	0x40df4361	6.976975
28	0xc082b575	-4.0846505
29	0xbfb518a0	-1.414814
30	0xc0a9cfbe	-5.306609
31	0xc0989e8b	-4.7693534
32	0x4089c07d	4.304747
33	0xbd1dea66	-0.038553618
34	0x40ce1b87	6.4408603
35	0x40d13e9d	6.538893
36	0x3b834144	0.004005583
37	0xbdcf0d99	-0.101100154
38	0xbd2f43d6	-0.042789303
39	0x3d33ef42	0.043929346
40	0xbe15cd6e	-0.14629146
41	0x40035015	2.0517628
42	0xbe1f5326	-0.15559062
43	0x40bbf665	5.8738275
44	0x3d1b9639	0.03798506
45	0xbfe55637	-1.7916936
46	0x3d8dcb8d	0.0692359
47	0xbcf14a30	-0.02945432
48	0x3c0a07bb	0.008424695
49	0x40cf884f	6.485389
50	0x40db7c11	6.858895
51	0xbde0162b	-0.10941728
52	0x3d4a9e15	0.049467165
53	0xbdf08ed4	-0.11745992
54	0xbdbfbb07	-0.093618445
55	0x40808d1b	4.017225
56	0xbf4ad716	-0.79234445
57	0x3d353b67	0.044246104
58	0x3c55f148	0.013058014
59	0x40e035d8	7.0065727
60	0xbceb5f99	-0.028732108
61	0x4083cd56	4.1188154
62	0xbe0d7bb1	-0.13816716
63	0x408a2795	4.317332
64	0x3cbb4426	0.022859644
65	0x40e1edb1	7.060265
66	0xbdc95bc6	-0.098319575

layer_6.weight f4 [1, 67]
0	0xbd13f22c	-0.036119625
1	0x3a9174ef	0.0011097471
2	0xbcadd0c6	-0.021217715
3	0xbd4f5a9d	-0.050623525
4	0x3e1dc911	0.15408732
5	0x3e2599c4	0.16171938
6	0x3b9f512f	0.0048619728
7	0xbd02c295	-0.03192385
8	0x3e36bccf	0.17845462
9	0xbd3f7ad3	-0.046747994
10	0x3e1f4d3e	0.1555681
11	0xbcb95b62	-0.022626583
12	0xbd403d87	-0.046933677
13	0x3e4fcefd	0.20293804
14	0xbbe005fc	-0.006836651
15	0xbd54673d	-0.05185627
16	0xbd2319a7	-0.039819386
17	0xbdf04b99	-0.11733169
18	0xbd9b35a3	-0.0757859
19	0xbc96146a	-0.018320281
20	0x3de33bf0	0.110954165
21	0x3dacef9a	0.08444138
22	0x3de2abc5	0.11067919
23	0xbada29fa	-0.001664459
24	0x3dfa154d	0.12211094
25	0x3c420594	0.01184215
26	0xbd788264	-0.060671225
27	0x3deb8e5f	0.115017645
28	0xbdc03749	-0.09385545
29	0x3c209557	0.00980123
30	0xbd140b79	-0.036143754
31	0xbd6a04fb	-0.057133656
32	0x3dcf127b	0.10110947
33	0xbbbfdaeb	-0.0058549545
34	0x3dc7eef6	0.09762375
35	0x3deb4415	0.11487595
36	0x3cd7cbc6	0.026342284
37	0xbdddc66d	-0.10828862
38	0xbcd4d311	-0.02597955
39	0xbcaeae0f	-0.021323232
40	0x3c069b47	0.008215732
41	0x3cc6d73f	0.02427256
42	0xbc0a3548	-0.008435555
43	0x3e5c6a38	0.21524894
44	0xbd4889cf	-0.04895955
45	0xbe7ab40f	-0.2448275
46	0xbd600940	-0.05469632
47	0xbdab0581	-0.08350659
48	0x3c520178	0.012817733
49	0x3d9463eb	0.0724562
50	0x3db06e6f	0.086148135
51	0x3a68b859	0.00088775676
52	0xbde552fc	-0.11197469
53	0xbd117bb0	-0.03551835
54	0x3c272ef5	0.0102040665
55	0x3e3fcbba	0.1873006
56	0x3b9a35fe	0.0047061434
57	0xbd7eb645	-0.062185545
58	0xbd6e673d	-0.058203924
59	0x3e03b7f1	0.12863137
60	0xbdb63684	-0.08897117
61	0x3d4b271d	0.04959785
62	0x3ce0dacc	0.02744808
63	0x3dfed5e0	0.12443137
64	0xbb2e0500	-0.0026553273
65	0x3e474829	0.1946112
66	0xbbac5730	-0.005259417
