RL_models/10 Sites (new)/pytorch_models/TD3_MEC_0_actor.pth (torch, 350987 bytes, 60 tensors)

layer_1.weight f4 [84, 109]
0	0x3d1f55bb	0.03890012
1	0x3da5fdf5	0.08105079
2	0x3d1e0eb7	0.038588252
3	0xbbebb24f	-0.007192887
4	0xbce82b94	-0.028341092
5	0x3d9060b0	0.07049692
6	0xbd165e88	-0.036711246
7	0xbcc1bf6e	-0.023650851
8	0xbd7fc17c	-0.06244038
9	0xbce9c45f	-0.02853602
10	0xbca430ca	-0.020042796
11	0xbd8b4cbe	-0.06801747
12	0xbd9c4d6c	-0.076319546
13	0x3d3c9284	0.046038166
14	0xbd7aefc8	-0.06126383
15	0xbd309be0	-0.043117404
16	0xbdaa2061	-0.08306957
17	0x3d836098	0.06414908
18	0x3d8a3d5b	0.06749984
19	0x3d9b3afa	0.07579608
20	0xbda8155a	-0.082071975
21	0x3c4edb28	0.012625493
22	0x3d954914	0.07289329
23	0xbdd479d0	-0.103747964
24	0x3db8db97	0.090262584
25	0xbda94eba	-0.08266969
26	0xba96f549	-0.0011517192
27	0x3d3d800b	0.04626469
28	0xbd2cbdab	-0.04217307
29	0x3d40e829	0.047096405
30	0xbd1e1d8c	-0.038602397
31	0xbd56e7d4	-0.052467182
32	0xbc2f6f52	-0.010707693
33	0x3ce700cb	0.02819862
34	0xbda3d45e	-0.0799949
35	0xbca59f44	-0.020217545
36	0x3d7a970a	0.0611792
37	0x3d0b9048	0.034073144
38	0x3db08832	0.08619727
39	0xbc3da7d4	-0.011575658
40	0xbd72d804	-0.05928804
41	0xbbf1460b	-0.007363086
42	0xbda1f73b	-0.079084836
43	0x3d61997a	0.055078007
44	0xbd5d2f5a	-0.054000236
45	0x3c3734a5	0.011181985
46	0xbd2e2fc7	-0.042526033
47	0xbd90bfd4	-0.07067838
48	0xbd5232d0	-0.05131799
49	0x3d98a38f	0.07453071
50	0x3d04079e	0.032233827
51	0xbdab6ea9	-0.08370716
52	0xbd81fdb5	-0.06347219
53	0xbd802f70	-0.06259048
54	0xbd7a7ec7	-0.06115606
55	0x3d80f4ad	0.06296668
56	0xbd0b10ce	-0.033951573
57	0x3cfecd17	0.031103654
58	0xbcff5024	-0.031166144
59	0x3d5baf1a	0.053633787
60	0x3d9f76e5	0.07786349
61	0x3d69dc95	0.05709513
62	0x3d1025e0	0.03519237
63	0x3c0738f8	0.0082533285
64	0xbd54586a	-0.05184213
65	0x3db00efc	0.08596608
66	0x3be7aa83	0.007069887
67	0x3c97d032	0.018531892
68	0xbd36b307	-0.044604328
69	0x3dd2ac7d	0.10286806
70	0xbcc5c305	-0.024140844
71	0xbd4b2be9	-0.049602423
72	0x3b6ae926	0.0035844534
73	0x3c2efd67	0.010680533
74	0xbcb845cc	-0.02249422
75	0x3cf467df	0.029834686
76	0xbd53ce4c	-0.051710412
77	0xbd27a4d0	-0.04092866
78	0x3cb4ee9f	0.02208644
79	0x3d0412c6	0.032244466
80	0xbd8d4936	-0.068987295
81	0xbdafe92e	-0.08589397
82	0x3d611c4f	0.054958638
83	0xbb2a0775	-0.0025944386
84	0xbd477380	-0.048694134
85	0xbdb0d77c	-0.086348504
86	0xbd79ef97	-0.061019506
87	0xbd01df11	-0.031706873
88	0x3bf8c66b	0.0075920126
89	0x3dcd5cb3	0.100274466
90	0x3d7fc7d5	0.062446434
91	0xbdd1fca3	-0.10253265
92	0xbdaa2f75	-0.08309833
93	0x3d6c0bce	0.057628445
94	0x3ddf364e	0.1089903
95	0xbcdb2b2d	-0.026753986
96	0x3da07a00	0.0783577
97	0xbd85aa8a	-0.06526668
98	0xbc519282	-0.012791278
99	0x3d1b4ac3	0.037913095
100	0x3a1b8326	0.00059323234
101	0xbca224ee	-0.019793
102	0xbdb259f9	-0.08708567
103	0xbcae9900	-0.02131319
104	0xbd31b600	-0.04338646
105	0xbca986cf	-0.020694165
106	0xbc76a85b	-0.0150547875
107	0xbc45058e	-0.01202525
108	0x3cc6059b	0.024172595
109	0xbcef88d9	-0.029240059
110	0x3cfe2817	0.031024976
111	0x3d186ae5	0.037211318
112	0xbd340a7e	-0.04395532
113	0xbadb4c03	-0.0016731027
114	0xbd1428fa	-0.03617189
115	0x3d44fd86	0.04809334
116	0x3c97a8c4	0.01851309
117	0x3de7d57c	0.11320016
118	0xbd8027f3	-0.0625762
119	0xbc1948f3	-0.009355771
120	0x3d19cb54	0.037547424
121	0x3be8d04a	0.007104908
122	0xbd0eb928	-0.034844548
123	0x3be92c6a	0.0071158903
124	0x3e0944a0	0.13405085
125	0xbc6b9bf9	-0.0143804485
126	0x3dc44b81	0.09584714
127	0x3d84fa83	0.06493094
128	0xbd5067e9	-0.050880346
129	0xbcb3e9af	-0.021962015
130	0x3de83329	0.11337883
131	0x3cdc60a2	0.026901547
132	0x3daa2a8a	0.08308895
133	0xbe06a4d6	-0.13148817
134	0xbdbdf350	-0.09274924
135	0x3d9ff3c9	0.0781017
136	0x3d238400	0.039920807
137	0x3cec59a8	0.028851345
138	0xbd1c82df	-0.038210746
139	0xbd0efe93	-0.03491075
140	0x3d172582	0.036901005
141	0x3db4e44d	0.088326074
142	0xbdbe0ec3	-0.09280159
143	0x3e080024	0.13281304
144	0x3dab4776	0.083632395
145	0x3d52b888	0.051445514
146	0x3e0b517d	0.13605304
147	0xbde43dab	-0.11144575
148	0xbdb6ac7e	-0.08919619
149	0xbc8e3952	-0.017361317
150	0xbc9de8b4	-0.019276
151	0xbcbfe4ec	-0.023424588
152	0x3df7eae8	0.12105352
153	0x3ccd3e0d	0.025054002
154	0xba353f60	-0.00069140457
155	0x3beeb7c8	0.007285092
156	0x3d040fb7	0.03224155
157	0x3e066f0a	0.13128296
158	0xbcd3fb20	-0.025876582
159	0x3d1ff734	0.03905411
160	0xbd1c07c4	-0.038093343
161	0xbdad872b	-0.08473047
162	0x3e019e67	0.12658082
163	0xbd4ad2de	-0.049517505
164	0x3d0775d8	0.03307137
165	0x3c192129	0.009346285
166	0xbdf9213e	-0.121645436
167	0x3dc94af8	0.09828752
168	0xbcc7d8ca	-0.024395365
169	0x3dbdf446	0.09275107
170	0xbd00a7e5	-0.031410117
171	0xbb9590e1	-0.00456439
172	0xbdc82a0c	-0.09773645
173	0x3b443671	0.0029939676
174	0x3e0c5be2	0.13706926
175	0xbd555b74	-0.05208917
176	0xbcd1efa2	-0.025626961
177	0xbd1ab646	-0.037771486
178	0xbde83b97	-0.11339491
179	0x3d5d6dd1	0.054059807
180	0x3dc4a0a8	0.09600955
181	0xbd316ce4	-0.043316737
182	0x3d411e3c	0.047147974
183	0xbdbe27a2	-0.09284903
184	0x3d35630d	0.044283915
185	0xbdb83afe	-0.08995627
186	0xbd61730a	-0.05504135
187	0xbdcdd14a	-0.10049684
188	0xbdd85abe	-0.10564183
189	0x3c94495c	0.018101387
190	0x3e08a0c8	0.13342583
191	0x3d623f5d	0.05523621
192	0xbb358b8a	-0.002770158
193	0x3c988a4a	0.018620629
194	0x3d988924	0.074480325
195	0xbd1b351e	-0.037892453
196	0xbda54e21	-0.080715425
197	0xbd4b42b0	-0.049624145
198	0x3d340254	0.043947533
199	0xbe156a90	-0.14591432
200	0x3d78d20b	0.060747188
201	0xbdbfd483	-0.09366705
202	0x3d8c2586	0.068430945
203	0xbc632b08	-0.01386524
204	0x3e349372	0.17634371
205	0x3c7affa6	0.01531974
206	0x3d1de0d3	0.038544487
207	0xbd47ee89	-0.04881147
208	0x3ddaf771	0.10691727
209	0x3da15bb3	0.07878818
210	0xbd93ed2a	-0.0722297
211	0xbd1ae3e4	-0.03781499
212	0x3d48613c	0.048920855
213	0x3db012d2	0.0859734
214	0x3c9a9911	0.018871816
215	0x3d0132dd	0.031542648
216	0x3dc97cd0	0.09838259
217	0x3a256b6b	0.0006310257
218	0xbd1f2e9e	-0.038862817
219	0x3d65d129	0.056107674
220	0x3bf421be	0.0074503114
221	0xbd08389d	-0.033257116
222	0xbc27e080	-0.010246396
223	0xbd0b5417	-0.03401574
224	0x3c08a1d7	0.008339367
225	0x3a663e9c	0.0008783133
226	0xbd30de5d	-0.043180812
227	0x3dafb621	0.0857966
228	0xbd69628f	-0.05697876
229	0x3bf5240b	0.0074811033
230	0x3b16b260	0.0022994503
231	0x3c9f1733	0.019420242
232	0x3cd2550c	0.02567532
233	0xbd1d89ac	-0.038461372
234	0xbab0c1e3	-0.0013485517
235	0xbb0170a1	-0.001975097
236	0x3d653846	0.05596187
237	0xbd299d4f	-0.041409787
238	0xbdbcdaff	-0.09221458
239	0x3d963219	0.07333774
240	0x3d5497ab	0.051902454
241	0xbd3f0bc7	-0.04664209
242	0xbd69a44c	-0.05704145
243	0x3c041094	0.008060593
244	0xbbc7dee6	-0.0060995696
245	0xbd188f23	-0.03724588
246	0xbd832b19	-0.064047046
247	0x3d9a5c92	0.07537188
248	0x3d85b347	0.06528335
249	0xbd9eae9d	-0.077481486
250	0xbcb67e5c	-0.02227705
251	0x3d24738c	0.040149257
252	0x3d328466	0.043583296
253	0x3af93017	0.0019011524
254	0x3ce787c5	0.028262982
255	0xbd75ed59	-0.060040805

layer_1.bias f4 [84]
0	0xbdaf0339	-0.085455365
1	0x3d2fed00	0.04295063
2	0xbd081441	-0.03322244
3	0x3cbf8f9b	0.023383906
4	0x3cbd4c2d	0.023107613
5	0x3dcdf6d0	0.100568414
6	0xba1d8a62	-0.00060096954
7	0x3c171112	0.0092203785
8	0x3cdd8748	0.027042046
9	0x3e02cc4b	0.12773244
10	0xbd00e641	-0.031469587
11	0x3d0ece7a	0.03486488
12	0x3d96243d	0.07331131
13	0xbdca8bf8	-0.09889978
14	0x3cdbabeb	0.026815375
15	0x3c8b59fd	0.017010683
16	0xbd8dbc08	-0.0692063
17	0x3d7079c8	0.05870989
18	0x3e29ea71	0.16593339
19	0x3d7e6642	0.06210924
20	0xbb006c37	-0.001959575
21	0x3b5bf0b6	0.0033560223
22	0x3a43daa4	0.00074712397
23	0x3e2fdd5e	0.17174289
24	0x3e1e781c	0.15475506
25	0x3e0e3fa2	0.13891461
26	0x3e1372df	0.14399289
27	0x3dbf46fa	0.093397096
28	0x3d850921	0.06495882
29	0x3de60e25	0.112331666
30	0xbdbfb968	-0.09361535
31	0x3c8d10e7	0.017219974
32	0x3b7c3364	0.003848278
33	0xbc301e83	-0.010749462
34	0xbb17e78a	-0.002317878
35	0xbbe5415e	-0.0069963178
36	0x3c7cd4e9	0.015431621
37	0x3da8663a	0.08222623
38	0x3c57583f	0.013143598
39	0xbd18e970	-0.037332
40	0x3e1bce14	0.15215331
41	0x3e1da9a5	0.15396746
42	0x3dc5b9ce	0.0965458
43	0x3ce7c250	0.028290898
44	0x37ac123d	2.051249e-05
45	0xb99bff03	-0.00029753902
46	0x3e0075d0	0.12544942
47	0x3de61819	0.11235065
48	0x3e1a1061	0.1504531
49	0x3db480e8	0.088136494
50	0x3d284793	0.041083883
51	0xbc137c18	-0.009001754
52	0xbd0cda5e	-0.03438794
53	0x3b8266cc	0.0039795395
54	0x3e20bbff	0.15696715
55	0x3c630793	0.013856786
56	0x3e07f125	0.13275583
57	0xbb4cc3a2	-0.0031244536
58	0x3e26e668	0.1629883
59	0xbd38519f	-0.044999715
60	0x3dcaba80	0.09898853
61	0x3c518bb7	0.012789658
62	0x3ac4a1b7	0.0015001808
63	0x3ca0bea6	0.019622158
64	0x3de4270e	0.111402616
65	0x3ce81b72	0.0283334
66	0x3e10039f	0.14063881
67	0x3db947c2	0.0904689
68	0xbd551f9b	-0.052032094
69	0xbd1ec8e2	-0.038765796
70	0x3e2798ba	0.16366854
71	0x3d9a15a6	0.0752366
72	0x3e012372	0.12611178
73	0x3e163f2d	0.14672537
74	0x3d3059e3	0.043054473
75	0x3e16148f	0.1465628
76	0x3dbf9be2	0.09355904
77	0x3dbbee91	0.09176362
78	0x3d96c484	0.07361701
79	0x3d598077	0.05310103
80	0x3d5ed086	0.054398082
81	0x3c5bcd88	0.013415702
82	0x3d5246c5	0.051337022
83	0x3e16a8db	0.14712851

layer_2.weight f4 [42, 84]
0	0x3de25bf9	0.11052699
1	0x3e2675f4	0.16255933
2	0x3db5ff99	0.08886642
3	0xbb1a5fbb	-0.0023555595
4	0x3d31ef30	0.043440998
5	0x3dc7ea98	0.09761542
6	0x3c42aa5c	0.011881437
7	0x3dedbb77	0.11608022
8	0xbcea8d95	-0.028631965
9	0x3e2e01b5	0.16992839
10	0x3cb2191c	0.021740489
11	0x3e270aac	0.16312665
12	0xbcb57e0e	-0.022154834
13	0xbd35b6e1	-0.04436386
14	0x3d5dce78	0.054151982
15	0xbd122499	-0.035679433
16	0x3e022d40	0.12712574
17	0x3da95e3f	0.08269929
18	0x3da70cea	0.0815676
19	0x3c9132a4	0.017724343
20	0x3db9b987	0.0906859
21	0x3d5febc0	0.054668188
22	0x3d5044c3	0.050846826
23	0x3d00c70f	0.031439837
24	0x3e258930	0.16165614
25	0x3e2f209b	0.17102282
26	0x3da0f668	0.07859498
27	0x3de09ffc	0.109680146
28	0xbdc3f57b	-0.09568306
29	0x3daa8d90	0.08327782
30	0xbd8234bc	-0.063577145
31	0xbd2e86c2	-0.042608984
32	0x3d1e3c23	0.03863157
33	0xbd65ba3e	-0.056085818
34	0x3e135f8f	0.14391921
35	0x3d0a390c	0.03374581
36	0x3d919daf	0.07110154
37	0x3df6d5ea	0.120525196
38	0x3e1b1c8e	0.15147611
39	0x3d36bb97	0.044612493
40	0x3dce7559	0.10080976
41	0xbd10f353	-0.035388302
42	0x3ddf0457	0.108895
43	0xbcdf25ab	-0.027239641
44	0x3dee78e2	0.1164415
45	0x3daa5925	0.08317784
46	0x3c63c3f4	0.013901699
47	0xbce2a686	-0.027667295
48	0x3e057cfe	0.13035962
49	0xbdcfae8d	-0.10140715
50	0x3e0f6595	0.14003594
51	0xbca3dfa5	-0.020004103
52	0xbd95bea2	-0.07311751
53	0x3d140dba	0.036145903
54	0xbb1e829b	-0.0024186734
55	0x3d591448	0.052997857
56	0x3da0c0f9	0.078493066
57	0x3e0c3602	0.13692477
58	0x3d81cf09	0.06338317
59	0x3bb2ab47	0.0054525468
60	0x3d952d8b	0.07284077
61	0x3d3999ba	0.04531262
62	0x3d66cecd	0.056349564
63	0x3dadab03	0.084798835
64	0x3d847654	0.06467882
65	0x3d8b02e8	0.06787664
66	0x3c347cc5	0.0110160755
67	0x3e0a5f5d	0.1351294
68	0x3da01191	0.078158505
69	0xbced0a5b	-0.028935602
70	0x3e13fa90	0.14451051
71	0x3d9e4d6b	0.0772961
72	0xbc7efa78	-0.015562646
73	0x3c5c30ed	0.013439399
74	0x3ce5e76c	0.028064452
75	0x3db6c729	0.089247055
76	0x3dbbf785	0.0917807
77	0x3c9bbb22	0.01901013
78	0x3c5a0a3b	0.013308103
79	0x3dd5b24e	0.104343995
80	0x3d87340f	0.06601726
81	0x3d022391	0.0317722
82	0x3d90d78f	0.070723645
83	0x3e03e47b	0.12880127
84	0x3d8c96cc	0.068647
85	0x3e15b91f	0.146214
86	0xbdbd534f	-0.092444055
87	0x3c867cc7	0.01641692
88	0xbc8702bd	-0.016480798
89	0xbd5aa59f	-0.053380605
90	0xba124137	-0.0005579176
91	0x3daceac3	0.08443215
92	0xbdb92e07	-0.09041982
93	0x3e04b3f6	0.12959275
94	0xbd9ba607	-0.076000266
95	0xbd097c3a	-0.033565737
96	0x3e0883cb	0.13331525
97	0xbd99287f	-0.07478427
98	0x3da37094	0.07980457
99	0x3d9cc071	0.07653893
100	0x3dfdc1a8	0.123904526
101	0x3d9b6d30	0.07589185
102	0x3dd9e087	0.10638528
103	0x3dab900a	0.08377083
104	0x3c953316	0.018212836
105	0xbcf55996	-0.029949944
106	0xbde60c28	-0.11232787
107	0x3df8c525	0.12146977
108	0x3de95b85	0.11394409
109	0x3c1e0c13	0.009646433
110	0xbd4d2eaf	-0.05009335
111	0x3c02f38c	0.007992636
112	0x3d91f810	0.07127392
113	0x3c9edcb7	0.019392354
114	0xbc177fc2	-0.009246768
115	0x3d4e047f	0.050297257
116	0xbcbb906e	-0.022896018
117	0x3d70f61e	0.058828466
118	0x3c90359e	0.017603692
119	0xbdd80466	-0.10547714
120	0x3e192fda	0.1495966
121	0x3dd86b65	0.10567359
122	0x3d7c8526	0.061650418
123	0x3da39491	0.07987321
124	0x3e1e45c5	0.15456302
125	0x3db4ab7c	0.088217705
126	0xbc4302d7	-0.011902533
127	0xbc20fc9d	-0.009825853
128	0x3df3595d	0.11882279
129	0x3e2210ce	0.15826723
130	0xbd6b506c	-0.057449743
131	0x3df029b5	0.11726705
132	0xbcf7ae6b	-0.030234536
133	0xbd1f1287	-0.03883603
134	0xbd3fc1ee	-0.046815805
135	0x3d363d4f	0.044492062
136	0x3c3e264a	0.0116058085
137	0xbc8d2475	-0.017229298
138	0x3da7ce6b	0.08193668
139	0xbcf6142b	-0.030038914
140	0xbc3f7a87	-0.011686928
141	0x3e255580	0.16145897
142	0x3d87c2d3	0.06628957
143	0x3da0ed19	0.07857723
144	0x3d61d98f	0.05513912
145	0x3e0475c7	0.12935553
146	0xbcdd2c98	-0.026998803
147	0xbd2d4391	-0.042300764
148	0x3dbbb0de	0.09164594
149	0xbd2205d0	-0.039556324
150	0x3df1142a	0.11771424
151	0x3d947e8a	0.07250698
152	0xbd31ac86	-0.04337742
153	0xbd2df0ce	-0.042465977
154	0x3e1df6e0	0.15426207
155	0xbd459523	-0.04823793
156	0xbcf516ab	-0.029918035
157	0x3d419889	0.04726461
158	0xbd5656c6	-0.052328847
159	0x3e1289a3	0.14310317
160	0xbc98b81a	-0.018642474
161	0x3d680a39	0.056650374
162	0x3e19475a	0.14968625
163	0xbd45847c	-0.04822205
164	0x3dc2a221	0.0950358
165	0x3df1f386	0.118140265
166	0x3e17546b	0.14778297
167	0x3df35808	0.11882025
168	0xbc7434ec	-0.014905196
169	0xbd574393	-0.05255468
170	0x3db089e5	0.08620051
171	0xbc3551da	-0.011066878
172	0x3db0f5f7	0.08640664
173	0x3c7b33f4	0.015332211
174	0xbcd8cf81	-0.026466133
175	0xbd00b5ad	-0.03142326
176	0x3c29ee7a	0.010371799
177	0x3dc9ad06	0.09847455
178	0x3cefcd71	0.029272767
179	0x3d9808af	0.07423531
180	0xbd97bfe8	-0.0740965
181	0x3ae17e7d	0.0017203834
182	0x3cd21b3f	0.025647758
183	0xbd8ca9ea	-0.06868346
184	0x3d80a529	0.06281502
185	0x3d990688	0.07471949
186	0xbd93a149	-0.07208497
187	0x3d6525c9	0.055944238
188	0x3d02e2d3	0.031954598
189	0xbcaadb1c	-0.020856433
190	0xbdc8f4b0	-0.098122954
191	0x3d766a28	0.060159832
192	0x3d6c9877	0.05776259
193	0xbdddeb53	-0.108359
194	0xbcfd1df6	-0.030898076
195	0xbc5a41c5	-0.013321345
196	0xbdc0cf57	-0.09414547
197	0xbdae7ca0	-0.08519864
198	0x3d40286d	0.046913553
199	0xbdc55f87	-0.09637361
200	0xbb0836c8	-0.0020784605
201	0x3c24e19d	0.010063556
202	0x3dc7846f	0.097420566
203	0x3d0319bc	0.032006964
204	0xbdc00263	-0.09375455
205	0xbd9dd7fc	-0.077072114
206	0x3d06a345	0.03287055
207	0xbd191bc5	-0.03738
208	0x3d805187	0.0626555
209	0x3d4d0720	0.050055623
210	0xbdc91fca	-0.098205164
211	0x3ce0379d	0.027370268
212	0xbd1b8d69	-0.037976656
213	0xbc3ee555	-0.011651357
214	0x3d8b8d95	0.06814114
215	0x3db57dac	0.08861861
216	0x3d92cc23	0.07167842
217	0xbc38a457	-0.01126965
218	0xbdad88bb	-0.08473345
219	0xbd8789ed	-0.06618104
220	0xbde02563	-0.10944631
221	0xbd44400c	-0.047912642
222	0xbd2fe932	-0.042947
223	0xbdc3776c	-0.09544262
224	0xbc6ce7af	-0.014459535
225	0xbd7e583d	-0.06209587
226	0xbdb843d6	-0.08997314
227	0x3dc2156b	0.094767414
228	0x3b557d8f	0.003257606
229	0x38a7518e	7.978371e-05
230	0xbd9894e0	-0.07450271
231	0x3dbde2df	0.09271788
232	0x3d04390c	0.032280967
233	0x3ccadee8	0.024764493
234	0xbd96901d	-0.07351706
235	0x3c58613b	0.013206775
236	0xbc6a137a	-0.01428687
237	0x3da8d8d8	0.08244485
238	0xbd442ec4	-0.04789616
239	0xbdd313d4	-0.10306516
240	0x3d8531a0	0.06503606
241	0xbbc4cce2	-0.0060058692
242	0x3d6faae2	0.058512576
243	0xbdd89be9	-0.105766125
244	0x3d74657b	0.05966709
245	0xbc8cd9df	-0.017193733
246	0xbd08eaf2	-0.033427186
247	0xba907a63	-0.0011022802
248	0xbadac946	-0.0016692064
249	0xbd5d9e96	-0.054106317
250	0x3ce37919	0.027767705
251	0xbdc000f5	-0.093751825
252	0xbd65d64c	-0.056112573
253	0xbd434e1c	-0.047681913
254	0x3dbbfa28	0.09178573
255	0x3cfd919e	0.030953225

layer_2.bias f4 [42]
0	0x3dec7bb7	0.11547034
1	0x3cb4f101	0.022087576
2	0xbd88fd6d	-0.06688962
3	0xbcb9c0a5	-0.022674868
4	0xbd626c98	-0.055279344
5	0x3e1ba4c1	0.15199567
6	0x3e06b19f	0.13153695
7	0xbd11d09e	-0.035599343
8	0x3e0a82bf	0.13526438
9	0x3defd968	0.11711389
10	0xbc5616f6	-0.013066998
11	0x3dc13182	0.09433271
12	0xbdb0ccff	-0.0863285
13	0xbcc68b04	-0.02423621
14	0x3d893400	0.06699371
15	0xbc186994	-0.009302516
16	0xbda3ceaf	-0.07998406
17	0x3e225ddb	0.15856116
18	0x3dd2fcde	0.10302137
19	0x3e068183	0.13135342
20	0x3dfea94f	0.12434637
21	0x3dea9416	0.114540264
22	0x3dd2c962	0.10292317
23	0xbbbb5888	-0.005717341
24	0xbd68e69d	-0.056860555
25	0xbd0bcd57	-0.034131374
26	0x3e03e144	0.12878901
27	0xbd8e59f0	-0.06950748
28	0xbdd5ec86	-0.10445504
29	0xbde168a3	-0.11006286
30	0x3e0b882d	0.13626166
31	0xbb3d7fe2	-0.0028915335
32	0x3e024b8f	0.12724136
33	0x3e0fd720	0.14046907
34	0xbdce1833	-0.100632094
35	0x3de74488	0.11292368
36	0xbd72111a	-0.05909834
37	0x3e33fc45	0.17576702
38	0x3d04bc33	0.032406043
39	0xbd6fa37f	-0.05850553
40	0xb8c2e5c9	-9.293442e-05
41	0xbd4fb5e5	-0.050710578

layer_3.weight f4 [42, 42]
0	0x3e5896de	0.21151301
1	0xbd705401	-0.058673862
2	0xbd558ea6	-0.052137993
3	0xbe181fea	-0.14855924
4	0x3ba0606c	0.004894307
5	0x3dd4596b	0.103686176
6	0x3dfd1cf9	0.12359042
7	0xbd5838af	-0.052788433
8	0x3e225cb9	0.15855683
9	0x3c9cda53	0.019147074
10	0x3cc09d08	0.023512378
11	0x3e5c6e0a	0.21526352
12	0xbca6d770	-0.0203664
13	0xbca111b8	-0.01966177
14	0x3d084cfc	0.033276543
15	0x3dc348cd	0.0953537
16	0x3e0c7501	0.13716508
17	0x3e0cc169	0.13745655
18	0xbc8b5a13	-0.017010724
19	0x3d02e81b	0.031959634
20	0x3da200f4	0.07910338
21	0x3dbed632	0.09318198
22	0x3d3a9199	0.04554901
23	0x3e0bef92	0.13665608
24	0x3d585d91	0.052823607
25	0x3e2f0f60	0.17095709
26	0x3dfb7488	0.12278086
27	0x3e2132a2	0.15741971
28	0x3c5cd9d5	0.01347967
29	0x3d6be97e	0.057595722
30	0xbd034ef6	-0.032057725
31	0xbc89d305	-0.016824255
32	0x3e4f42b7	0.20240293
33	0x3df9d814	0.12199417
34	0x3c9ddb02	0.01926947
35	0x3e2a793b	0.16647808
36	0x3d24c6f3	0.040228795
37	0xbd73f4bf	-0.05955958
38	0x3d5ac96b	0.053414743
39	0xbca0a05f	-0.01960772
40	0x3dad3078	0.0845651
41	0x3da6c71c	0.08143446
42	0x395f9413	0.00021322099
43	0x3dd00a02	0.10158159
44	0xbdfc17a4	-0.123091966
45	0xbd806bd5	-0.06270567
46	0x3e131631	0.14363934
47	0x3e1e8df3	0.15483837
48	0x3dc2923e	0.0950055
49	0x3d65a5f9	0.056066487
50	0x3da5bac5	0.08092264
51	0x3e612379	0.21986188
52	0x3e2c7c7b	0.1684436
53	0x3e2d6cf5	0.16936095
54	0xbcd14377	-0.025544865
55	0x3bf321e1	0.00741981
56	0xbdce4843	-0.100723766
57	0xbcdb2190	-0.026749402
58	0x3d9bf0b0	0.07614267
59	0x3dd5bc76	0.10436337
60	0x3e4fdeab	0.20299785
61	0x3e0a88a8	0.13528693
62	0x3e24f10e	0.1610758
63	0x3dd1b8ee	0.10240351
64	0xbc6caeef	-0.014446004
65	0x3e05d660	0.13070059
66	0x3df32c65	0.11873702
67	0x3e2cfa67	0.16892396
68	0x3c3506ea	0.011049012
69	0x3d9a61ca	0.07538183
70	0xbdf00053	-0.11718812
71	0xbde87fc0	-0.113524914
72	0xbbeca19b	-0.0072214133
73	0x3c9ea065	0.019363591
74	0x3e406c42	0.18791297
75	0x3e543d5b	0.2072653
76	0x3d79a086	0.060944103
77	0x3d56ffdd	0.052490104
78	0x3d9f512b	0.077791534
79	0x3c83b01b	0.016075185
80	0x3da4906f	0.08035361
81	0xbbefbcaa	-0.0073161917
82	0x3e74a7e5	0.23892172
83	0x3cb6617d	0.022263283
84	0x3e427df1	0.18993355
85	0x3d052dbb	0.032514315
86	0xbd067e39	-0.03283522
87	0xbac284b7	-0.0014840577
88	0xbd1f9df6	-0.038969003
89	0x3df02a08	0.11726767
90	0x3ddd2799	0.10798568
91	0x3e24b247	0.16083632
92	0x3d3b63bf	0.045749422
93	0xbdbb127f	-0.09134387
94	0xbcbffc33	-0.023435688
95	0x3da60b1f	0.0810759
96	0x3d72fe5b	0.059324604
97	0x3e1d98ad	0.15390272
98	0x3d56aa7b	0.052408677
99	0x3d4bd11a	0.04975996
100	0xbda3ca80	-0.07997608
101	0x3e501290	0.20319581
102	0xbd04bee1	-0.0324086
103	0x3e2ea9c6	0.17056951
104	0x3e0720ea	0.1319615
105	0xbd2fac48	-0.04288891
106	0x3c6f8e7e	0.014621375
107	0x3db54054	0.0885016
108	0xbd46cd53	-0.048535656
109	0x3ba1f01b	0.004941953
110	0xbc9e16e7	-0.01929803
111	0xbd82854d	-0.06373081
112	0xbd631011	-0.055435244
113	0xbd87f888	-0.066392004
114	0xbdc766d8	-0.09736413
115	0x3d3d69de	0.04624354
116	0x3e2b2e2f	0.16716836
117	0xbc3672df	-0.011135786
118	0xbe07077d	-0.1318645
119	0x3e4b4b70	0.19852996
120	0xbc8bf533	-0.017084694
121	0x3e17bcdf	0.14818142
122	0xbdcbe6e0	-0.09956145
123	0xbe0b6719	-0.13613547
124	0x3de31cfb	0.11089512
125	0x3c854c33	0.016271686
126	0xbd6240c6	-0.055237554
127	0x3ba6d3fb	0.005091188
128	0x3d2f33f3	0.042774152
129	0xbc20b286	-0.009808188
130	0x3e106972	0.14102724
131	0x3d13c429	0.036075745
132	0xbe10fc0f	-0.14158653
133	0x3e02f5d0	0.12789083
134	0x3bac65c8	0.0052611567
135	0x3e01e886	0.12686357
136	0xbd42d5a7	-0.047567036
137	0x3e0d2df5	0.13787062
138	0xbd4e335a	-0.05034194
139	0xbe235979	-0.159521
140	0x3c7fc5c3	0.015611115
141	0x3de0e48f	0.10981094
142	0x3d9b2d9b	0.07577058
143	0xbd593b0d	-0.05303483
144	0xbd49aa07	-0.049234416
145	0xbc62a0d1	-0.013832287
146	0xbd6f6919	-0.05844984
147	0xbdec3124	-0.1153281
148	0x3dad6d79	0.08468146
149	0x3dc3c158	0.09558362
150	0xbd9de968	-0.07710534
151	0xbd46e834	-0.04856129
152	0xbced88d9	-0.028995918
153	0x3e133fad	0.14379759
154	0x3ce97288	0.028496996
155	0xbd99878e	-0.07496558
156	0xbd9f3f49	-0.077757426
157	0x3bba6d4d	0.005689299
158	0xbcd4720a	-0.025933284
159	0xbd4daa4a	-0.05021123
160	0x3ca45207	0.020058645
161	0xbe238529	-0.15968765
162	0xbd3b1bf0	-0.04568094
163	0x3d9d0e9a	0.07668801
164	0xbe0934eb	-0.13399093
165	0x3dc093ee	0.09403215
166	0xbd8b18a4	-0.06791809
167	0x3bd4f4eb	0.006498923
168	0x3d14457b	0.036199074
169	0xbd81c682	-0.063366905
170	0x3df77483	0.1208277
171	0xbe1a495d	-0.15067048
172	0x3d2ffc1b	0.042965036
173	0xbd9adb67	-0.07561379
174	0x3dbcf670	0.09226692
175	0x3a8d78fb	0.0010793501
176	0x3e0d70e4	0.13812596
177	0x3dbb0a66	0.09132843
178	0xbe062ec8	-0.13103783
179	0x3c61e910	0.013788477
180	0x3e09e855	0.13467534
181	0xbc8149fe	-0.015782353
182	0x3db3150d	0.087442495
183	0xbd304d18	-0.043042272
184	0x3cbc7661	0.023005666
185	0x3db7c999	0.089739986
186	0xbd893251	-0.0669905
187	0xbdaba047	-0.0838018
188	0x3dcf94ec	0.101358265
189	0x3da68692	0.08131136
190	0xbe0aa20f	-0.13538383
191	0xbe088371	-0.13331391
192	0xbccc5d98	-0.024946973
193	0xbd9cde13	-0.07659545
194	0xbdab5ea8	-0.083676636
195	0xbc9e6a51	-0.019337805
196	0xbdada002	-0.08477785
197	0xbe115132	-0.1419113
198	0xbd842be0	-0.06453681
199	0x3d926cfb	0.071496926
200	0x3cf2ee12	0.029654536
201	0xbdf62b93	-0.1202003
202	0x3cab3be3	0.02090258
203	0xbd900683	-0.07032492
204	0x3d877dee	0.06615816
205	0xbde990a3	-0.114045404
206	0x3d1f76a9	0.038931523
207	0xbd886939	-0.06660695
208	0xbd4590f6	-0.04823395
209	0xbc901bc6	-0.017591368
210	0x3ce67252	0.028130684
211	0xbbf9ac4f	-0.0076194177
212	0xbde918f3	-0.11381712
213	0x3d1ae671	0.037817422
214	0x3de209e4	0.11037043
215	0x3e175be2	0.14781144
216	0xbd83b879	-0.0643167
217	0xbdb2c387	-0.087287
218	0x3d373f18	0.044737905
219	0x3e43029f	0.19043969
220	0xbda79a6f	-0.08183753
221	0x3e597b6b	0.21238486
222	0x3d6e7fdf	0.058227416
223	0x3e02e4be	0.1278257
224	0x3e245742	0.16048911
225	0x3e1d1ecd	0.15343781
226	0xbe058dcd	-0.13042374
227	0x3d9a38d6	0.07530372
228	0x3dd09a07	0.101856284
229	0xbb694d99	-0.003559923
230	0x3d58d029	0.052932892
231	0xbc5131c7	-0.0127682155
232	0x3e4ddbe5	0.20103414
233	0x3e273bbb	0.16331379
234	0x3d6846c3	0.05670811
235	0x3d0d26f2	0.03446097
236	0x3e347747	0.17623626
237	0xbc29b827	-0.010358847
238	0x3e2926a0	0.1651864
239	0x3e01d575	0.12679084
240	0xbd197248	-0.037462503
241	0xbd4faaa5	-0.05069985
242	0x3d2761e7	0.04086485
243	0x3e377d34	0.17918855
244	0xbc775d05	-0.015097861
245	0xbc01c2ba	-0.007919962
246	0xbda7ab1d	-0.08186934
247	0xbd0b2ff4	-0.03398128
248	0x3b746072	0.0037288931
249	0x3d729f76	0.059234105
250	0x3df09483	0.11747076
251	0x3e1a5812	0.15072659
252	0x3d51e469	0.05124322
253	0x3dc2fda0	0.095210314
254	0xbe186f9e	-0.14886329
255	0x3d31f83f	0.043449637

layer_3.bias f4 [42]
0	0x3e49ebf5	0.19718917
1	0x3e15747d	0.14595218
2	0xbd1127a8	-0.03543821
3	0x3d5844db	0.05280004
4	0x3b8c4bc4	0.004281493
5	0xbc002d39	-0.007823282
6	0xbe36a15f	-0.17834996
7	0x3e3c5e7b	0.18395416
8	0x3e4b9fb3	0.19885139
9	0x3e510f3a	0.20415965
10	0xbe1b53c3	-0.15168671
11	0x3e43e386	0.19129762
12	0x3c41b6b1	0.011823342
13	0x3e1b2bf5	0.15153487
14	0x39530023	0.00020122579
15	0xbe0b9e73	-0.13634662
16	0x3e663723	0.2248197
17	0xbd0b48c6	-0.03400495
18	0x3e45fdb9	0.19335069
19	0xbc383115	-0.011242171
20	0xbd49c241	-0.04925752
21	0x3e45ba57	0.19309364
22	0xbdb51e1f	-0.08843636
23	0xbb6416c8	-0.0034803618
24	0xbddf516c	-0.10904202
25	0x3dd44fda	0.10366793
26	0x3e3527eb	0.17691009
27	0xbceea85e	-0.029133018
28	0x3ceba77b	0.028766384
29	0xbdb1f2a7	-0.086888604
30	0xbd9847b7	-0.074355535
31	0x3e6642ec	0.22486466
32	0x3d2d715a	0.04234443
33	0x3e26ed28	0.16301405
34	0xbd7e6f2a	-0.062117733
35	0xbd471dbd	-0.048612345
36	0x3e076043	0.13220315
37	0xbd597b67	-0.0530962
38	0x3c196ad0	0.009363845
39	0x3dba7f91	0.091063626
40	0x3dce3f6a	0.10070689
41	0x3c4eaa8c	0.012613904

layer_11.weight f4 [84, 42]
0	0x3da7ef48	0.08199936
1	0xbd714d8c	-0.058911845
2	0x3ceca03f	0.028885005
3	0x3dfee5fe	0.12446211
4	0xbca17f76	-0.019714098
5	0xbe02844c	-0.1274578
6	0xbd2da270	-0.04239124
7	0x3de6c443	0.11267903
8	0x3cc6baf5	0.02425907
9	0xbe11c290	-0.14234376
10	0xbd01c88f	-0.03168541
11	0xbd9cf73d	-0.076643445
12	0x3d83d331	0.06436766
13	0xbb3c0c9c	-0.002869404
14	0x3e1c2eb7	0.15252195
15	0xbcf75e86	-0.03019644
16	0xbd01a08a	-0.031647243
17	0x3d868035	0.06567422
18	0xbd319f2a	-0.04336468
19	0x39cbda67	0.000388819
20	0x3db3964f	0.087689035
21	0x3e14a381	0.14515497
22	0x3d88dba7	0.0668252
23	0xbd414fc9	-0.04719523
24	0xbdd7b284	-0.10532096
25	0xbd1516dd	-0.036398757
26	0x3d8ad6b4	0.067792326
27	0xbd718cea	-0.058972277
28	0x3cd4c6dc	0.02597373
29	0xbdf82c7d	-0.121178605
30	0xbd87e22e	-0.06634937
31	0x3e06510e	0.13116857
32	0x3d9c2037	0.07623332
33	0xbdbcddb2	-0.092219725
34	0xbdc67718	-0.09690684
35	0xbd9a8110	-0.07544148
36	0xbda63114	-0.0811483
37	0xbdbb70ea	-0.09152396
38	0x3dc1c176	0.09460728
39	0xbdb2db89	-0.08733279
40	0xbdd66681	-0.1046877
41	0x3decc964	0.1156185
42	0x3e11e1e2	0.14246324
43	0xbdaaf6bd	-0.08347843
44	0xbba55941	-0.0050460403
45	0x3cb9fc67	0.022703363
46	0xbd3cb5f8	-0.046071976
47	0x3d8cfac8	0.0688377
48	0x3dc40845	0.0957189
49	0xbd1094db	-0.03529821
50	0xbd91a207	-0.071109824
51	0x3d87752d	0.066141464
52	0xbdf6842a	-0.12036927
53	0x3deee351	0.11664451
54	0x3da58452	0.08081879
55	0x3d8346af	0.06409966
56	0xbcd9b4ad	-0.02657541
57	0x3ab49463	0.0013777133
58	0x3da03b62	0.078238264
59	0x3dc0d964	0.09416464
60	0x3e0c6f28	0.13714278
61	0xbdf09247	-0.1174665
62	0xbd6538d0	-0.055962384
63	0xba1a4d77	-0.0005886177
64	0x3c35aa13	0.011087912
65	0x3be483fc	0.0069737416
66	0x3ce82bb9	0.028341161
67	0xbddf6f44	-0.10909894
68	0xbda8c0c2	-0.08239891
69	0xbd16336f	-0.036670145
70	0x3dcfbe95	0.101437725
71	0xbce4fe1f	-0.027953206
72	0x3d47dd08	0.048794776
73	0x3da29bfb	0.07939907
74	0x3d78d124	0.060746327
75	0x3dbdaa5d	0.0926101
76	0x3cbfce31	0.02341375
77	0x3db5f001	0.08883668
78	0xbd671ffe	-0.056426995
79	0x3c008546	0.007844275
80	0x3dd4edfb	0.10396954
81	0xbb8b02fc	-0.004242299
82	0x3e17dc45	0.1483012
83	0xbde7c6f7	-0.113172464
84	0x3d773b61	0.060359363
85	0x3ca6b8c0	0.020351768
86	0x3d093f80	0.033507824
87	0x3dfb5edb	0.122739516
88	0x3d8f8299	0.070073314
89	0xbd95f8ac	-0.07322821
90	0x3dbb3dba	0.09142633
91	0x3de6f662	0.112774625
92	0x3dc04aed	0.09389291
93	0xbe0868fa	-0.13321295
94	0x3dc2c509	0.09510238
95	0xbe168eb6	-0.14702877
96	0xbd2ae6ad	-0.041723896
97	0xbd890907	-0.06691175
98	0x3e16f1a6	0.14740619
99	0x3e0bd1f5	0.13654311
100	0xbdeee8a9	-0.1166547
101	0xbdb57a1a	-0.0886118
102	0x3de897f7	0.1135711
103	0xbd021b97	-0.031764593
104	0x3dc7fb88	0.09764773
105	0x3cba9898	0.02277784
106	0x3de07460	0.10959697
107	0xbce6b072	-0.028160308
108	0xbe076d98	-0.132254
109	0xbd3c3a23	-0.04595388
110	0xbe1c0a5f	-0.15238331
111	0x3d45b0ee	0.048264436
112	0x3e17afe3	0.14813189
113	0x3def62b0	0.11688745
114	0xbe26ee9a	-0.16301957
115	0xbcb9fcdd	-0.022703582
116	0xbc9aef72	-0.018913005
117	0x3d7e728b	0.062120955
118	0xbe173a54	-0.14768344
119	0x3cc39d75	0.023878792
120	0xbde85973	-0.11345186
121	0x3e0afb80	0.13572502
122	0x3dec5d58	0.115412414
123	0xbe059a5e	-0.13047168
124	0x3e000065	0.1250015
125	0xbda20277	-0.079106264
126	0xbd51cf3b	-0.05122302
127	0x3c464ec8	0.012103744
128	0x3d0f5ffc	0.035003647
129	0xbdb02325	-0.08600453
130	0xbe032b5b	-0.12809508
131	0x3bb69fd0	0.0055732504
132	0xbd154c81	-0.036449913
133	0x3d6ec154	0.05828984
134	0x3d3368be	0.04380106
135	0x3cc3a023	0.02388007
136	0xbd58a02f	-0.052887138
137	0xbcc70e39	-0.024298774
138	0x3c6beab9	0.014399224
139	0x3c030af9	0.007998222
140	0xbdfbb73d	-0.12290809
141	0xbdf70427	-0.12061339
142	0x3c8c65a9	0.01713832
143	0x3e093258	0.13398111
144	0xbd34ad1a	-0.044110395
145	0x3bfbb888	0.00768191
146	0xbddc9c14	-0.10771957
147	0x3cdfc3b2	0.027314994
148	0x3e263693	0.16231756
149	0x3d5708e4	0.052498713
150	0xbdf4a045	-0.119446315
151	0x3de2e748	0.1107927
152	0xbd97b9bc	-0.07408473
153	0x3d2c97a4	0.042136803
154	0xbd481f28	-0.048857838
155	0xbe1e2172	-0.15442446
156	0xbd4ed8bf	-0.050499674
157	0x3ddeeea8	0.10885364
158	0x3e0b38fc	0.13595957
159	0xbd76e7db	-0.06027971
160	0x3d470ce0	0.048596263
161	0x3e0b1a2d	0.13584204
162	0x3de642df	0.112432234
163	0x3b8b7948	0.004256401
164	0xbcd2cf09	-0.025733488
165	0x3d66cb3b	0.05634616
166	0xbdb9ba3b	-0.09068724
167	0x3d408794	0.047004297
168	0x3da64247	0.0811811
169	0xbda13e49	-0.07873208
170	0x3d62a27f	0.05533075
171	0xbca47240	-0.02007401
172	0xbe057d1a	-0.13036004
173	0x3df16126	0.11786108
174	0xbdd4b575	-0.10386173
175	0x3d57c7ac	0.052680656
176	0xbdcfbc14	-0.10143295
177	0x3e36c3ce	0.17848131
178	0x3dae303c	0.08505294
179	0x3e4189ed	0.18900271
180	0x3e1ddb70	0.1541574
181	0xbd2e52e5	-0.042559523
182	0x3e1b21a3	0.1514955
183	0xbca16461	-0.019701185
184	0x3d7c557b	0.061604958
185	0x3db2939d	0.08719561
186	0x3d694566	0.05695095
187	0x3d67576a	0.05647985
188	0x3d337c83	0.043819916
189	0xbd23395e	-0.03984963
190	0x3d49651b	0.049168687
191	0x3d72cabd	0.059275378
192	0x3d5585a8	0.052129418
193	0x3dc548b8	0.096330106
194	0x3e079567	0.13240586
195	0x3c831ca7	0.016004873
196	0xbdfed3f0	-0.124427676
197	0xbd2e87ed	-0.042610098
198	0x3d9d297f	0.076739304
199	0x3db4295b	0.087969504
200	0xbd8ee495	-0.06977192
201	0x3da41741	0.08012248
202	0x3daa4d16	0.08315484
203	0x3be58f62	0.007005618
204	0x3e19e4db	0.15028708
205	0x3d86c851	0.06581176
206	0xbdb91fdf	-0.09039282
207	0x3d1ec004	0.03875734
208	0x3e1d197c	0.15341753
209	0xbd3c2db0	-0.04594201
210	0x3d8de895	0.06929127
211	0x3cc83ba8	0.024442509
212	0x3c91bff4	0.017791726
213	0xbd95e139	-0.073183484
214	0x3db8c058	0.09021062
215	0x3d56e4db	0.052464347
216	0x3d3e1a9b	0.04641209
217	0x3e0f9a85	0.14023788
218	0x3e10b439	0.1413125
219	0x3bdb776a	0.006697585
220	0x3dc8d6ec	0.09806618
221	0x3de0d8b2	0.10978831
222	0xbd04643c	-0.032322153
223	0x3d64a73f	0.05582356
224	0x3deffa1a	0.11717625
225	0xbbd716a6	-0.006563979
226	0x3e1507a2	0.14553693
227	0x3ca20494	0.019777574
228	0xbdd35651	-0.10319198
229	0x3ba91a6a	0.0051606195
230	0x3d1ccc21	0.03828061
231	0x3dcd760c	0.10032281
232	0x3d82be9f	0.06384014
233	0xbda28082	-0.07934667
234	0x3dda9058	0.10672063
235	0x3e2c24c7	0.16810904
236	0xbdf08dcf	-0.11745798
237	0xbde7930b	-0.11307343
238	0xbd9f3d4a	-0.07775362
239	0xbd704324	-0.05865778
240	0xbd994e6a	-0.074856594
241	0xba77d877	-0.0009454558
242	0x3e02c581	0.12770654
243	0x3d95e2ed	0.07318673
244	0x3e3a5f3b	0.1820039
245	0x3e0c3106	0.13690576
246	0xbd9b70ed	-0.07589898
247	0x3e04cbdc	0.12968391
248	0xbdb12c0c	-0.086509794
249	0xbdee1955	-0.116259255
250	0x3c47e75e	0.012201158
251	0xbe0d7b99	-0.1381668
252	0x3cbb74e3	0.022882884
253	0x3e0abe36	0.13549122
254	0xbd352bee	-0.044231348
255	0xbd873391	-0.066016324

layer_11.bias f4 [84]
0	0xbdc75b05	-0.097341575
1	0xbe058637	-0.1303948
2	0xbdbee738	-0.09321445
3	0x3dc01a6e	0.09380041
4	0xbcf6a39b	-0.03010731
5	0x3d62a495	0.05533274
6	0xbde00e76	-0.10940258
7	0x3de4136f	0.11136519
8	0x3cf3bdb4	0.029753543
9	0x3d2f06f5	0.042731244
10	0x3e0bc823	0.13650565
11	0xbab096d6	-0.0013472687
12	0xbd83d4e0	-0.06437087
13	0xbdef9456	-0.11698215
14	0x3bc36dd8	0.005964022
15	0xbbf5c12f	-0.007499836
16	0xbe06fdc6	-0.13182744
17	0x3b84d73a	0.0040539773
18	0xbc929025	-0.017891
19	0x3e614198	0.21997678
20	0x3df279ad	0.11839614
21	0x3d6aff71	0.057372514
22	0x3d9a0d24	0.075220376
23	0x3d148e83	0.036268722
24	0x3d01300a	0.031539954
25	0xbe1bd087	-0.15216266
26	0xbdafbd4e	-0.08581029
27	0xbc35f250	-0.011105135
28	0x3d4119a5	0.047143597
29	0x3dfccc9a	0.12343712
30	0x3e152f1a	0.14568749
31	0x3d3c2d8b	0.04594187
32	0x3d4b548c	0.049641177
33	0xbdd2c677	-0.102917604
34	0xbd9f7505	-0.077859916
35	0xbdde778c	-0.108626455
36	0x3e065e58	0.13121927
37	0xbde5b796	-0.11216657
38	0xbdcd5bb6	-0.10027258
39	0xbc674ff8	-0.014118187
40	0x3dc01bd9	0.093803115
41	0x3dfaf077	0.12252896
42	0x3cfb3454	0.0306646
43	0xbcaa2999	-0.020771788
44	0x3dfe6806	0.12422185
45	0x3bc72623	0.0060775443
46	0x3e153048	0.14569199
47	0xbd381aa6	-0.04494729
48	0x3d49e0e5	0.04928674
49	0x3cd0479f	0.025424777
50	0xbba8678a	-0.005139296
51	0xbdf80960	-0.12111163
52	0xbb930471	-0.0044866134
53	0x3c51dd83	0.01280916
54	0x3e513f49	0.20434298
55	0xbd5b466a	-0.05353395
56	0xbd862f21	-0.06551958
57	0x3de876d6	0.11350791
58	0xbd822e6d	-0.06356511
59	0x3e204565	0.15651472
60	0x3c0140bc	0.007888969
61	0x3e27e016	0.16394076
62	0xbd477a58	-0.04870066
63	0x3e10f649	0.1415645
64	0x394de69b	0.0001963623
65	0xbe1e770b	-0.15475099
66	0x3dd0ccd3	0.10195317
67	0xbd9780bd	-0.07397602
68	0xbd6d26f7	-0.057898488
69	0x3d810460	0.062996626
70	0x3dfa0719	0.12208385
71	0x3de182ac	0.11011252
72	0xba6d1ca8	-0.00090451026
73	0x3d89d94e	0.06730901
74	0x3e614ba5	0.22001512
75	0xbe106664	-0.14101559
76	0x3d1093d5	0.035297234
77	0x3c8049ff	0.015660284
78	0x3d604972	0.054757543
79	0xbc9004d2	-0.017580424
80	0x3d3a806f	0.04553264
81	0x3de63de3	0.11242273
82	0xbe0cbc3d	-0.13743682
83	0x3cb514c7	0.022104634

layer_12.weight f4 [42, 84]
0	0x3d09860e	0.03357511
1	0xbb9da5f8	-0.004811045
2	0xbd5c1056	-0.053726517
3	0x3d21095c	0.039315566
4	0xbdc35d7c	-0.09539315
5	0x3dc7a711	0.09748662
6	0xbcff32a0	-0.03115207
7	0x3dca83e6	0.09888439
8	0xbd5e0bbc	-0.05421041
9	0x3d850ffb	0.06497189
10	0x3d890160	0.066897154
11	0x3d3d6e2b	0.046247642
12	0x3dbd8fe9	0.09255964
13	0x3c78ed5d	0.015193311
14	0x3df24a74	0.11830607
15	0xbcdd20f1	-0.026993247
16	0x3d91bb25	0.07115773
17	0xbcb73151	-0.022362383
18	0xbc0dbed8	-0.008651458
19	0x3d44680c	0.04795079
20	0x3c18d502	0.009328129
21	0xbc615ac1	-0.013754548
22	0xbde67000	-0.11251831
23	0xbc801556	-0.015635174
24	0xbdb02009	-0.0859986
25	0x3c8efba0	0.017453969
26	0x3cadb9a0	0.021206677
27	0x3e02c4f4	0.12770444
28	0xbd83750b	-0.064188085
29	0xbdd8b07e	-0.10580538
30	0x3af0575f	0.0018336585
31	0xbd136d02	-0.03599263
32	0xbd9e2a45	-0.07722906
33	0x3dcd9a55	0.10039202
34	0xbcc58f6f	-0.024116246
35	0xbdd1458f	-0.102183454
36	0x3da5a7c8	0.08088642
37	0xbd46bd16	-0.04852017
38	0xbc8cd1f6	-0.01718996
39	0xbc485e52	-0.012229519
40	0x3d7a8294	0.061159685
41	0x3c4013e1	0.0117234895
42	0xbcfc67a5	-0.03081114
43	0xbc8a988e	-0.016918447
44	0x3d19594d	0.03743868
45	0xbca73cbe	-0.020414706
46	0x3cc2949a	0.0237525
47	0x3c7d345f	0.015454381
48	0x3d7d0b01	0.061778072
49	0xbd62f609	-0.05541042
50	0x3d297f99	0.041381452
51	0x3d7275d4	0.0591944
52	0xbd26a687	-0.040686157
53	0xbdb5c06b	-0.088745914
54	0x3d97a045	0.07403616
55	0x3dc62e04	0.096767455
56	0x3dcc1eab	0.09966787
57	0xbd8b78d5	-0.06810156
58	0x3c82a30d	0.01594689
59	0xbd559cc3	-0.052151453
60	0xbd085aa4	-0.033289567
61	0x3dbd4c35	0.09243051
62	0x3d824c54	0.06362215
63	0xbda39d6d	-0.07989011
64	0xba6334db	-0.0008667239
65	0x3c196bb3	0.009364056
66	0xbce62415	-0.028093377
67	0xbd49fa87	-0.049311187
68	0xbdc12c3b	-0.094322644
69	0x3b9944c7	0.0046773884
70	0x3bd90d1d	0.0066238777
71	0x3d9be2cc	0.076116174
72	0xbd50cbfc	-0.050975785
73	0xba99878d	-0.0011713371
74	0x3d078c5f	0.033092853
75	0xbd88c4b7	-0.066781454
76	0xbd6077c3	-0.054801714
77	0xbdd7fc51	-0.105461724
78	0x3d9a309d	0.075288035
79	0xbdbe2d0f	-0.09285938
80	0xbdc06489	-0.093941756
81	0x3db7ac83	0.08968451
82	0xbc81c160	-0.015839279
83	0xbd5eed8f	-0.054425772
84	0xbc8f2f40	-0.017478585
85	0xbde1b574	-0.110209376
86	0xbc95ba17	-0.018277211
87	0x3d123e12	0.035703726
88	0xbd7d5e67	-0.061857607
89	0x3bc76178	0.006084617
90	0xbd5bb3b5	-0.05363818
91	0xbd05fbcb	-0.03271083
92	0x3dfe4a18	0.12416476
93	0x3c8e27ab	0.0173529
94	0x3d4fbca2	0.050717004
95	0x3d0e6426	0.034763478
96	0xbd6a59d0	-0.057214558
97	0x3cdf366a	0.027247626
98	0xbc4fb673	-0.012677777
99	0xbd191ef5	-0.03738304
100	0x3d3da2c9	0.046297822
101	0x3c327aca	0.010893533
102	0x3ddd7297	0.10812872
103	0x3b7df2d1	0.0038749466
104	0xbc5aedba	-0.0133623425
105	0xbd5f270a	-0.05448059
106	0x3da1a590	0.07892907
107	0xbb980be8	-0.004640091
108	0x3d7e710b	0.062119525
109	0xbc95a21b	-0.018265774
110	0xbd64395f	-0.055718776
111	0xbbf08d67	-0.007341075
112	0x3d6be3a4	0.057590142
113	0x3da332fc	0.07968709
114	0xbd29fde3	-0.04150189
115	0x3d05f80f	0.03270727
116	0xbe177b20	-0.14793062
117	0xbd8593f3	-0.0652236
118	0x3dd42636	0.10358851
119	0xbd9436c8	-0.07237011
120	0x3c9f524e	0.019448426
121	0x3d32cf8b	0.04365496
122	0x3d4ab5bd	0.049489725
123	0xbc86eb34	-0.016469575
124	0x3d564996	0.05231627
125	0xbc241d50	-0.010016754
126	0x3cadbc78	0.021208033
127	0x3d742411	0.059604708
128	0x3cbee1c6	0.023301017
129	0xbda35266	-0.07974701
130	0x3ded7de2	0.11596276
131	0x3d105f8d	0.035247374
132	0x3dab000c	0.08349618
133	0x3bafa629	0.005360384
134	0x3cd482f5	0.025941351
135	0x3d2e47f5	0.042549092
136	0xbda8e38c	-0.08246526
137	0x3c9a61cf	0.018845467
138	0x3d7e4fff	0.06208801
139	0x3d897634	0.067119986
140	0xbd323277	-0.04350516
141	0x3db4078a	0.087905005
142	0xbdaf01db	-0.08545276
143	0x3dc7262a	0.09724076
144	0x3c6fb562	0.014630647
145	0x3d7c7271	0.061632577
146	0xbe2aac0f	-0.16667198
147	0x3b455314	0.0030109333
148	0x3dde7de6	0.10863857
149	0x3daad2a8	0.08340961
150	0x3de5c4d5	0.11219183
151	0x3dac20a8	0.08404666
152	0x3d620031	0.055175964
153	0xbd7c1573	-0.061543893
154	0xbdb7e325	-0.08978871
155	0xbd120e8d	-0.035658408
156	0xbdb94c28	-0.09047729
157	0x3cc8d038	0.024513349
158	0x3d890157	0.06689709
159	0x3d25d514	0.04048641
160	0x3d321764	0.04347934
161	0xbd4df7b0	-0.05028504
162	0x3dd16b86	0.102255866
163	0x3b6d8b6f	0.003624644
164	0x3d99c586	0.07508378
165	0xbc8daab3	-0.01729331
166	0xbce552ff	-0.027993677
167	0x3c997892	0.01873425
168	0x3da832ee	0.08212839
169	0xbcd02e70	-0.025412768
170	0xbd21a72b	-0.039466064
171	0x3e0d3020	0.1378789
172	0xbd2f52f7	-0.04280373
173	0x3cc532df	0.024072109
174	0x3c0c5994	0.008566279
175	0x3d8b924c	0.06815013
176	0xbd2b2791	-0.04178578
177	0xbd1ea0c1	-0.038727526
178	0xbd3382c1	-0.04382587
179	0xbd295f0a	-0.041350402
180	0x3d32d5fa	0.043661095
181	0xbd34388a	-0.043999232
182	0xbd79734a	-0.060900964
183	0xbc8e7eab	-0.017394384
184	0xbdd8a909	-0.10579116
185	0x3d951870	0.07280052
186	0xbda41f47	-0.08013778
187	0xbc071820	-0.008245498
188	0x3c7f08c4	0.015566055
189	0xbe63e615	-0.22255738
190	0x3c351f41	0.011054815
191	0xbd07cb7a	-0.033153035
192	0x3d9802d6	0.07422416
193	0xbda8e7a7	-0.08247309
194	0xbadc4f4a	-0.0016808298
195	0xbcd9e729	-0.026599484
196	0xbd184ad8	-0.03718075
197	0x3cd04d4e	0.025427487
198	0x3d654f68	0.05598393
199	0xbcfca1e3	-0.030838912
200	0x3d5c92ac	0.053850815
201	0x3ccc054f	0.024904875
202	0x3d8e4c7c	0.06948182
203	0x3dd0b9be	0.101916775
204	0x3d95b5f1	0.07310093
205	0xbdb33b15	-0.087515034
206	0x3be817b5	0.007082904
207	0xbd0dc94e	-0.034615807
208	0x3e098bcb	0.13432233
209	0xbc42608c	-0.011863839
210	0x3b59e923	0.0033250533
211	0xbd390974	-0.04517503
212	0xbd457797	-0.048209753
213	0x3d15b0c4	0.03654553
214	0xbc929fbe	-0.017898437
215	0x3dc75d15	0.09734551
216	0x3d3e721d	0.046495546
217	0x3b1bcf9f	0.0023774875
218	0x3d7b71bd	0.061387766
219	0xbc97fe92	-0.018554006
220	0xbc9c81d1	-0.01910487
221	0xbd721d31	-0.05910987
222	0x3ded6295	0.11591069
223	0xbd3aa345	-0.045565862
224	0x3d8be937	0.068315916
225	0xbc1016b8	-0.008794479
226	0x3d86e1dc	0.06586048
227	0x3de2ca83	0.11073782
228	0xbce64b2a	-0.028112013
229	0x3b211572	0.0024579433
230	0x3d7bcd6f	0.061475214
231	0xbc5faacc	-0.013651561
232	0x3db2bd31	0.08727492
233	0xbd6063f8	-0.054782838
234	0x3dabb138	0.08383411
235	0x3d68b280	0.056810856
236	0xbdc38dc7	-0.09548526
237	0xbd37f471	-0.044910852
238	0xbd33cffa	-0.043899514
239	0xbc0067f0	-0.007837281
240	0xbd8aa482	-0.067696586
241	0x3db23508	0.08701521
242	0x3df8c3f4	0.1214675
243	0x3da3891c	0.07985136
244	0xbc3fcd64	-0.011706684
245	0x3d75cb28	0.060008198
246	0x3c3b7b87	0.011443025
247	0x3d6098aa	0.05483309
248	0x3d8ea13f	0.06964349
249	0x3dd8c7e7	0.10585003
250	0xbdbc3ce7	-0.09191304
251	0x3db126d0	0.08649981
252	0x3dcd80f0	0.100343585
253	0xbdcf7fed	-0.10131822
254	0x3dbd1bca	0.09233816
255	0xbd173f3f	-0.03692555

layer_12.bias f4 [42]
0	0x3d81d447	0.06339317
1	0xbd363a74	-0.04448934
2	0x3dbfebcb	0.09371146
3	0xbd619503	-0.05507375
4	0xbd8c0309	-0.068365164
5	0x3d9f04a2	0.077645555
6	0x3daeadeb	0.08529266
7	0xbd0d682f	-0.034523185
8	0x3d350795	0.044196684
9	0xbc8860cd	-0.01664772
10	0xbd5cc568	-0.0538992
11	0x3d4a616b	0.04940931
12	0xbdbbd882	-0.09172155
13	0x3d1e7fea	0.038696207
14	0x3e2048d2	0.15652779
15	0x3c56e5e0	0.01311633
16	0x3e507b86	0.2035962
17	0xbd08b526	-0.03337588
18	0xbd063dd6	-0.032773815
19	0x3d6a6ece	0.057234578
20	0x3d09d40c	0.03364949
21	0x3dcc3547	0.09971099
22	0x3d921d32	0.07134475
23	0xbdb7bdc8	-0.08971745
24	0xbdac818f	-0.08423149
25	0xbc58e4d8	-0.013238154
26	0x3a743bcb	0.0009316771
27	0xbd76e1c7	-0.06027391
28	0x3c6dde2b	0.014518301
29	0xbd6148e3	-0.05500115
30	0x3b55089d	0.0032506355
31	0xbd11b987	-0.035577323
32	0xbd0aa376	-0.033847295
33	0xbd9baa1f	-0.076008074
34	0x3d9f0562	0.077646986
35	0xbd20030c	-0.039065406
36	0x3db28740	0.08717203
37	0x3d6378ce	0.05553513
38	0x3c7290a3	0.014804992
39	0x3d2cf3e2	0.042224772
40	0x3c4bbe10	0.012435451
41	0xbd6e80b7	-0.05822822

layer_13.weight f4 [10, 42]
0	0x3e052cee	0.1300542
1	0xbe2367df	-0.15957592
2	0x3da6237b	0.08112236
3	0x3e103ac1	0.14084913
4	0xbbd9bb9d	-0.0066446797
5	0x3dae8f05	0.085233726
6	0xbc795cd8	-0.01521989
7	0x3e073fb3	0.13207893
8	0x3d57d858	0.052696556
9	0xbe642190	-0.22278428
10	0x3d9e0f99	0.07717819
11	0x3d7dd5ae	0.06197136
12	0x3ded9389	0.11600406
13	0x3df5a60a	0.1199456
14	0xbe143d2f	-0.14476465
15	0x3d2807b5	0.041022975
16	0xbe174173	-0.1477106
17	0xbc947f65	-0.018127153
18	0x3c4a7143	0.012356105
19	0x3bf09bc0	0.0073427856
20	0xbd2c3e01	-0.04205132
21	0xbdbb5a29	-0.09148056
22	0xbded9240	-0.116001606
23	0xbd5e8dfd	-0.05433463
24	0xbdfbfa29	-0.12303574
25	0xbd72fc88	-0.059322864
26	0x3d645ac6	0.05575063
27	0x3da77d59	0.08178205
28	0xbd83d064	-0.06436232
29	0x3bec1df5	0.0072057196
30	0xbe0e1f38	-0.13879097
31	0x3d0268d1	0.031838242
32	0xbc9a965e	-0.018870529
33	0xbd5e29a5	-0.054238934
34	0x3cca7eb3	0.024718618
35	0x3dbab45c	0.09116432
36	0x3c5fa38b	0.0136498315
37	0xbde74f92	-0.11294474
38	0xbda3a447	-0.07990318
39	0x3d3b0695	0.045660574
40	0xbd98834c	-0.07446918
41	0x3e02f2d4	0.12787944
42	0x3db4b635	0.08823816
43	0xbc8adcc5	-0.016950974
44	0x3cae4046	0.021270882
45	0x3d913700	0.070905685
46	0xbc4d3d28	-0.012526788
47	0x3b08594f	0.0020805185
48	0xbd5531a1	-0.052049283
49	0xbd85a9e1	-0.065265425
50	0xbe42cf20	-0.19024324
51	0xbbe60985	-0.007020178
52	0x3c5c41a0	0.013443381
53	0x3d9d2213	0.07672515
54	0x3d0e2c4d	0.034710217
55	0x3c921bef	0.017835585
56	0xbda5256f	-0.080637805
57	0xbdf693ac	-0.12039885
58	0xbc029b0d	-0.007971537
59	0xbe108640	-0.14113712
60	0xbdb652a0	-0.08902478
61	0x3b738d41	0.0037163051
62	0x3c8c2816	0.017108958
63	0xbd633d4d	-0.055478383
64	0xbe527466	-0.20552215
65	0xbd4b2f55	-0.049605686
66	0x3d6702ac	0.056399032
67	0xbd443e7c	-0.047911152
68	0xbcee419c	-0.02908402
69	0xbe29de13	-0.16588621
70	0xbce7a0a6	-0.028274845
71	0xbdeb24df	-0.11481642
72	0x3cf56988	0.029957548
73	0xbe03a799	-0.12856902
74	0xbe25cda3	-0.16191725
75	0x3e08dc77	0.1336535
76	0xbe2d22f7	-0.1690787
77	0xbd52b9cc	-0.05144672
78	0xbe289a33	-0.16465072
79	0x3cdb8e9d	0.026801402
80	0x3d45b7a2	0.04827083
81	0xbdc3c370	-0.09558761
82	0x3dac7d1d	0.08422301
83	0xbdca0b1a	-0.09865399
84	0xbd917ed1	-0.071042664
85	0x3ddfea39	0.10933346
86	0x3e47db46	0.1951724
87	0xbe0a51ea	-0.1350781
88	0x3cb467ed	0.022022212
89	0x3c79b80b	0.015241633
90	0xbbe1d6a4	-0.0068920422
91	0xbdd78456	-0.10523288
92	0x3dc4fd21	0.09618593
93	0x3e1e429d	0.15455098
94	0x3e3405d1	0.17580344
95	0x3d820603	0.06348803
96	0xbdf3abab	-0.118979774
97	0x3e061ad1	0.13096167
98	0x3c95c3fc	0.01828193
99	0x3e040b98	0.12895048
100	0x3dd79253	0.10525956
101	0xbdb955ad	-0.090495445
102	0xbd66ff8a	-0.056396045
103	0xbd8b286e	-0.06794821
104	0x3dcb034c	0.09912738
105	0x3e0b5e59	0.1361021
106	0xbedecee8	-0.43517232
107	0xbe0b5ddd	-0.13610025
108	0x3d8da8cd	0.06916962
109	0x3e038518	0.1284374
110	0xbdb7891d	-0.08961699
111	0x3cb10926	0.021610808
112	0xbd66fdb9	-0.056394313
113	0xbdaa545a	-0.0831687
114	0x3d9de91b	0.07710477
115	0xbd091d8d	-0.033475447
116	0x3e17b835	0.14816363
117	0x3d38be4a	0.04510335
118	0x3a8d4e67	0.0010780812
119	0x3d0390ce	0.03212052
120	0xbda3a4de	-0.0799043
121	0x3e0ab84d	0.13546868
122	0xbcd20cb1	-0.025640817
123	0x3e072244	0.13196665
124	0x3c5ec2e4	0.01359627
125	0x3da915e6	0.0825613
126	0xbd5ecba0	-0.05439341
127	0x3deaac58	0.11458653
128	0xbd883f27	-0.0665267
129	0xbdc818a3	-0.09770324
130	0xbdbcd2c9	-0.092198916
131	0x3e2ee1b4	0.17078286
132	0x3dfe39ef	0.12413394
133	0x3d0c5764	0.03426303
134	0x3e05e2ed	0.13074847
135	0x3de15abf	0.110036366
136	0x3d8f56e0	0.06998992
137	0xbd81019b	-0.06299134
138	0xbe17612f	-0.14783166
139	0x3dcc7af3	0.09984388
140	0x3e21c315	0.15797074
141	0x3ddea101	0.10870553
142	0x3d3e72ec	0.046496317
143	0x3dcb0c51	0.099144585
144	0xbd88b1cb	-0.06674536
145	0x3d213d89	0.039365325
146	0xbc566096	-0.013084551
147	0x3e015fda	0.1263422
148	0xbec5efa4	-0.38659394
149	0xbe1db321	-0.15400364
150	0xbb8f76fa	-0.004378197
151	0xbd3bde05	-0.04586603
152	0xbda6e22f	-0.0814861
153	0x3dbacce9	0.09121115
154	0xbdad866b	-0.08472904
155	0x3c2e13ea	0.010624865
156	0x3deb4085	0.114869155
157	0x3d28c1d1	0.041200463
158	0x3d72311e	0.059128873
159	0x3da42767	0.08015328
160	0x3df4b475	0.11948482
161	0xbdcd59cf	-0.10026895
162	0xbd4d7c6a	-0.05016748
163	0xbd88fd51	-0.06688941
164	0xbd974720	-0.07386613
165	0x3dbac94b	0.09120425
166	0xbda682d1	-0.0813042
167	0xbc89e20b	-0.016831418
168	0xbce259de	-0.027630743
169	0x3e0332c8	0.1281234
170	0x3de0a16d	0.109682895
171	0xbd4ff11e	-0.050767057
172	0x3b385e35	0.0028132324
173	0x3e2ffecc	0.17187041
174	0xbd908781	-0.07057095
175	0xbc5e9cd8	-0.013587199
176	0x3dd7cadf	0.105367415
177	0xbe551637	-0.20809256
178	0xbd8e9c83	-0.06963446
179	0xbc43359f	-0.01191464
180	0x3de43154	0.11142221
181	0x3d3e18e5	0.04641046
182	0x3da721b3	0.081607245
183	0xbc26640f	-0.010155692
184	0x3c810d34	0.015753366
185	0xbdf7a6cb	-0.1209236
186	0x3e13721a	0.14398995
187	0x3dc64cec	0.096826404
188	0x3def1eeb	0.11675819
189	0x3e12e939	0.1434678
190	0xbe4fb57c	-0.20284075
191	0xbdf43e47	-0.11925941
192	0x3d4f0f8b	0.050551932
193	0xbdac0faa	-0.08401425
194	0x3de57534	0.11203995
195	0xbd22ea38	-0.03977415
196	0xbe31b2b9	-0.17353334
197	0xbd5864c1	-0.05283046
198	0x3bf8402c	0.0075760093
199	0xbe357550	-0.17720532
200	0x3d81c163	0.06335714
201	0xbe10dab3	-0.14145927
202	0xbd853059	-0.06503362
203	0xbcf5cd73	-0.030005192
204	0x3d11400f	0.03546148
205	0xbcdceba8	-0.026967838
206	0xbd1ece2b	-0.038770836
207	0xbc733f5a	-0.014846647
208	0xbcfa5596	-0.030558389
209	0x3e0c4aa0	0.13700342
210	0x3d483fba	0.0488889
211	0xbe38e75c	-0.18057007
212	0xbc544165	-0.012955044
213	0x3d89cfea	0.067291096
214	0xbd51a3e2	-0.05118168
215	0x3cd722e3	0.026261752
216	0x3cea36b0	0.02859053
217	0x3d2caad7	0.042155113
218	0xbc22ece0	-0.009944171
219	0x3de26522	0.11054446
220	0x3d40c8a1	0.047066335
221	0xbe40fbf3	-0.18846111
222	0xbe09e43e	-0.13465974
223	0xbd85f8cf	-0.06541597
224	0xbdf32641	-0.11872531
225	0xbe189d5b	-0.14903776
226	0xbe2662cc	-0.16248626
227	0xbdcf88f3	-0.10133543
228	0x3d5f613f	0.0545361
229	0x3da8d393	0.082434796
230	0x3dd7e95f	0.10542559
231	0x3c846529	0.016161518
232	0x3c3d1cd3	0.011542517
233	0x3dd25a6a	0.10271151
234	0x3dc56887	0.09639078
235	0xbe147aa7	-0.14499913
236	0x3e13fc57	0.14451729
237	0x3de79b00	0.11308861
238	0xbde51dbd	-0.11187313
239	0xbd89fd8e	-0.06737815
240	0xbde59c96	-0.11211507
241	0xbdb67ad6	-0.08910148
242	0xbca15d21	-0.019697728
243	0x3dc97c63	0.09838178
244	0xbde78b13	-0.11305823
245	0x3bbca5ed	0.0057570846
246	0xbdc852e9	-0.09781439
247	0xbe0553f4	-0.13020307
248	0x3cd2eafb	0.025746813
249	0x3dc2c8dc	0.09510967
250	0xbd72ea2f	-0.059305366
251	0xbda16fab	-0.07882627
252	0xbddf3a1a	-0.10899754
253	0xbdbcd008	-0.09219366
254	0xbe2b22f8	-0.16712558
255	0x3cff3aa0	0.031155884

layer_13.bias f4 [10]
0	0x3ddcde56	0.10784595
1	0x3d5996b4	0.053122237
2	0xbdd59350	-0.10428488
3	0x3e009137	0.12555395
4	0x3e2cb1ea	0.16864744
5	0x3dc1f283	0.094700836
6	0x3d99aec1	0.07504035
7	0xbccda2f4	-0.025102116
8	0xbe1f82a5	-0.1557718
9	0x3e4024fc	0.18764108
